pretrained/ani_angles.pt (torch, 784263 bytes, 9 tensors)

weight f4 [128, 1133]
0.049630426 -0.068603516 -0.090849005 -0.072993964 -0.043995522 -0.0444202 -0.050432116 -0.011555319
-0.14412983 -0.13735552 -0.09258819 -0.11618337 -0.10165264 -0.07750773 0.02145117 -0.11876541
-0.047292937 -0.08471134 -0.035409056 -0.10441061 -0.08548835 -0.09754438 -0.11578096 -0.028475408
-0.07887801 -0.12117552 -0.055215444 -0.06675916 -0.07739593 -0.07558532 -0.054336853 -0.019839637
-0.0571042 -0.09560047 -0.06450859 -0.1011022 -0.032001495 -0.06580448 -0.013550019 -0.041784476
-0.03409801 -0.0385773 -0.018382631 -0.11145545 -0.14958319 -0.0817631 -0.15119109 -0.061797123
-0.051367532 0.018229872 -0.16121142 -0.048421714 -0.058897454 -0.07736849 -0.10531575 -0.060830347
0.01426253 -0.11304093 -0.06671095 -0.02761181 -0.085750975 -0.03525444 -0.07551983 -0.02981524
-0.10043875 -0.26010886 -0.1221445 -0.084360264 -0.107976705 -0.14779711 0.009374875 -0.14177862
-0.15555677 -0.12598021 -0.06961376 -0.05728109 -0.112710275 -0.0041155103 0.00979064 0.02351473
-0.0062972982 -0.012219311 -0.019071056 0.012337272 -0.025955098 -0.010718753 0.0057226494 -0.06672685
-0.04067605 0.00063321047 0.027240906 -0.029543107 -0.022012677 -0.11227711 -0.07348457 -0.08628047
-0.091036744 -0.02737476 -0.014104631 -0.06152241 -0.063013315 -0.07658218 -0.07113166 -0.10315543
-0.087105475 -0.10818711 -0.12505318 -0.048392802 -0.08380859 0.018371271 0.02828969 0.011186732
-0.027827153 0.00526318 -0.020743053 -0.022884294 -0.018789586 0.024884332 -0.03070875 0.02137857
0.018515753 -0.014301853 0.015848 -0.026391918 -0.036071252 0.017536342 0.015017693 -0.0126081165
-0.005950513 0.0074061267 0.019460872 -0.014819961 -0.049342517 0.022338906 -0.0090285195 -0.025093263
0.008495488 -0.009187218 -0.008898577 -0.025237942 -0.020342449 -0.056791935 -0.06589807 -0.036777645
-0.050920777 -0.07615587 0.00039588692 -0.03263874 -0.049902327 -0.08783397 -0.08949513 -0.05069692
-0.017972363 -0.07943663 -0.03874741 -0.009871425 -0.055733215 0.027125139 0.0058705467 -0.010056123
-0.0035941673 -0.014944672 0.02940263 -0.017460018 -0.026902027 0.0042261877 0.008978698 -0.013636492
-0.0028135532 0.015252622 -0.018253343 0.024608681 -0.01778994 -0.17888969 -0.11016795 -0.070331246
-0.12501475 0.0034574 -0.005136543 -0.03827969 -0.055562414 -0.035411213 -0.05329895 -0.038074765
-0.08096242 -0.21348624 -0.17747416 -0.10489825 -0.069143854 -0.042432602 -0.030771004 -0.07362249
-0.09582483 -0.05048455 -0.019682983 -0.027304607 -0.06529958 -0.10971933 -0.06816907 -0.006820478
0.023392074 -0.14416537 -0.034424156 0.0054937727 0.02367257 0.024206053 0.003409641 -0.027928691
-0.028255107 -0.022545535 -0.017117351 -0.013684598 0.02111429 -0.009308407 -8.5560656e-05 -0.015607412
-0.027177313 0.022281813 0.014078133 -0.01461729 -0.025542151 -0.016341548 -0.01817182 -0.06815553
-0.20018966 -0.045765374 -0.10818438 -0.073630445 -0.122463584 -0.089576215 -0.086706504 -0.10313029
-0.09904622 -0.04431181 -0.095945105 -0.032831833 -0.038184606 -0.08187186 -0.0780888 -0.09362549
-0.0768608 -0.13017273 -0.11252449 -0.07950038 -0.06905269 -0.14842364 -0.14627169 -0.1242567
-0.076650195 -0.10143524 -0.1015184 -0.075996704 -0.0921097 0.017576994 0.014661121 0.06650643
00000000: 4649 4b3d 0080 8cbd 0b0f babd dc7d 95bd
00000010: a634 34bd f5f1 35bd e891 4ebd 8552 3dbc
00000020: c596 13be eda6 0cbe e19e bdbd 8cf1 edbd
00000030: 422f d0bd 5fbc 9ebd 5dba af3c 473b f3bd
00000040: 3db6 41bd 247d adbd 1609 11bd 3bd5 d5bd
00000050: 8414 afbd 59c5 c7bd 911e edbd 4245 e9bc
00000060: cb8a a1bd df2a f8bd 9729 62bd 07b9 88bd
00000070: c281 9ebd 7acc 9abd 5290 5ebd bc86 a2bc
00000080: 18e6 69bd 2eca c3bd 141d 84bd ac0e cfbd
00000090: 0014 03bd 80c4 86bd e600 5ebc 3326 2bbd
000000a0: 5baa 0bbd 3b03 1ebd 2c97 96bc c142 e4bd
000000b0: 562c 19be 6a73 a7bd d6d1 1abe fb1e 7dbd
000000c0: c366 52bd d056 953c 9b14 25be d955 46bd
000000d0: 753e 71bd 5f73 9ebd c9af d7bd 3e29 79bd
000000e0: 63ad 693c 0182 e7bd c09f 88bd 2a32 e2bc
000000f0: 359e afbd f666 10bd 24aa 9abd 173f f4bc
00000100: d5b2 cdbd fd2c 85be e526 fabd 13c5 acbd
00000110: e422 ddbd 2058 17be 1399 193c 6a2e 11be
00000120: 464a 1fbe f500 01be a991 8ebd 949f 6abd
00000130: a5d4 e6bd 67db 86bb ec68 203c f7a1 c03c
00000140: 9159 cebb 8133 48bc e73a 9cbc 4522 4a3c
00000150: c99f d4bc b59d 2fbc 1085 bb3b 16a8 88bd
00000160: ee9b 26bd 09fe 253a 5228 df3c 6304 f2bc
00000170: ee53 b4bc 8bf1 e5bd 147f 96bd d1b3 b0bd
00000180: 7971 babd 0841 e0bc 1c17 67bc ecfe 7bbd
00000190: 200d 81bd 1ed7 9cbd 7aad 91bd 2743 d3bd
000001a0: 5b64 b2bd 3491 ddbd f10d 00be 8837 46bd
000001b0: d7a3 abbd 597f 963c c8bf e73c 8e48 373c
000001c0: c5f5 e3bc c176 ac3b 56ed a9bc d877 bbbc
000001d0: 9eec 99bc 3ada cb3c eb90 fbbc 1c22 af3c
000001e0: 59ae 973c 5252 6abc aad3 813c dd33 d8bc
000001f0: 73bf 13bd 60a8 8f3c c50c 763c 4692 4ebc
00000200: 85fc c2bb 18af f23b 686c 9f3c 6ccf 72bc
00000210: 611b 4abd 1500 b73c 5bec 13bc 6390 cdbc
00000220: a930 0b3c fc85 16bc 56cb 11bc cdbf cebc
00000230: 35a5 a6bc a99e 68bd 91f5 86bd 28a4 16bd
00000240: 4e92 50bd 9cf7 9bbd 0b8f cf39 33b0 05bd
00000250: 6266 4cbd 4ce2 b3bd 3949 b7bd 93a7 4fbd
00000260: c73a 93bc acaf a2bd 9bb5 1ebd c2bb 21bc
00000270: 8348 64bd 8a35 de3c b75d c03b 70c2 24bc
00000280: 1f8c 6bbb 7fda 74bc c9dd f03c 5008 8fbc
00000290: a461 dcbc d57b 8a3b 641b 133c 986b 5fbc
000002a0: 9763 38bb 22e6 793c 0988 95bc 2598 c93c
000002b0: 35bc 91bc dc2e 37be bc9f e1bd d409 90bd
000002c0: de03 00be 8c95 623b 7250 a8bb 2acb 1cbd
000002d0: 6a95 63bd 590b 11bd 0050 5abd 49f4 1bbd
000002e0: a0cf a5bd 239c 5abe c9bb 35be e5d4 d6bd
000002f0: 4b9b 8dbd cfcd 2dbd 7913 fcbc 63c7 96bd
00000300: cf3f c4bd e3c8 4ebd 353e a1bc e9ad dfbc
00000310: c9bb 85bd 87b4 e0bd 3a9c 8bbd 517e dfbb
00000320: bca0 bf3c 16a0 13be 5800 0dbd 1b05 b43b
00000330: faec c13c c64b c63c 4974 5f3b b6ca e4bc
00000340: 4177 e7bc 6ab1 b8bc b039 8cbc 5d35 60bc
00000350: e0f7 ac3c 4a82 18bc 076f b3b8 3bb6 7fbc
00000360: f5a2 debc 5988 b63c f8a7 663c 5c7d 6fbc
00000370: c63d d1bc b6de 85bc 12dd 94bc 2095 8bbd
00000380: 85fe 4cbe 7974 3bbd c68f ddbd 8fcb 96bd
00000390: 30ce fabd bc73 b7bd 2e93 b1bd f935 d3bd
000003a0: bfd8 cabd 4d80 35bd de7e c4bd ac7a 06bd
000003b0: 7667 1cbd 6fac a7bd 05ed 9fbd b9be bfbd
000003c0: 3269 9dbd 004c 05be 3d73 e6bd 18d1 a2bd
000003d0: 7f6b 8dbd 5efc 17be 3fc8 15be 4c7a febd
000003e0: c7fa 9cbd 47bd cfbd e1e8 cfbd 29a4 9bbd
000003f0: 03a4 bcbd a1fd 8f3c 3335 703c 8634 883d

bias f4 [128]
-0.069604024 0.1098678 -0.11688405 -0.054263663 0.100297086 0.10447906 -0.08989039 0.077804275
-0.11903136 0.07626021 -0.11170132 -0.06554536 0.08534995 0.08256468 -0.08397058 0.079181895
-0.060117494 -0.07281561 -0.050672714 -0.078127556 -0.06927836 0.08072233 0.09173306 0.06771161
0.031157384 -0.0744266 0.07122174 -0.06863588 0.11737575 -0.059276715 0.0850831 -0.058777414
0.026646433 0.11954925 -0.06314592 0.110530876 0.0733469 0.08144631 0.101400234 0.098444164
-0.057705145 -0.09929853 -0.09957841 0.086070955 -0.09840028 -0.09908227 -0.071069956 0.105516315
0.07250821 -0.12183098 -0.070788376 0.101927124 -0.07504114 -0.06862764 -0.06376437 -0.10709681
0.07417814 0.0659613 0.083607376 0.08696098 0.08346302 0.06912686 0.029761469 0.09261172
-0.05505637 -0.08014157 0.052754767 -0.10363844 0.09290831 0.07141292 -0.10754433 0.08319358
-0.11102184 -0.09555422 0.064956084 -0.07500436 0.100577496 0.023527343 -0.07213196 -0.104691215
0.07872635 0.0794008 -0.07574927 0.08190244 -0.118148915 -0.0812999 0.092687346 0.09209961
-0.12430977 0.11746648 0.06406469 -0.07793419 0.09687667 -0.0899193 -0.123190515 0.08520888
0.05833242 0.0834144 -0.09058654 0.03346785 0.10245268 0.115297385 -0.119601466 0.056685634
-0.111535095 0.07477902 -0.09986122 -0.047131162 0.09279049 -0.11847786 0.09557139 0.08832432
-0.11767753 -0.10224495 0.059884515 0.124694474 0.07115703 0.067622274 -0.117593214 -0.11193262
0.10056297 -0.11960298 -0.11033897 -0.07275986 -0.08370371 0.1052299 0.07031177 -0.1168404
00000000: 8e8c 8ebd 5e02 e13d e860 efbd 9343 5ebd
00000010: 8f68 cd3d 1ef9 d53d 7418 b8bd d957 9f3d
00000020: b7c6 f3bd 502e 9c3d a9c3 e4bd a53c 86bd
00000030: f4cb ae3d ac17 a93d c4f8 abbd 1e2a a23d
00000040: c33d 76bd 5a20 95bd 318e 4fbd 5701 a0bd
00000050: d0e1 8dbd c051 a53d 8bde bb3d 62ac 8a3d
00000060: c53d ff3c f96c 98bd b4dc 913d f890 8cbd
00000070: b262 f03d 24cc 72bd 0c40 ae3d 96c0 70bd
00000080: 9f49 da3c 3dd6 f43d a652 81bd 035e e23d
00000090: e636 963d 53cd a63d edaa cf3d 189d c93d
000000a0: 3b5c 6cbd 075d cbbd c4ef cbbd f845 b03d
000000b0: 1686 c9bd a5eb cabd 208d 91bd f018 d83d
000000c0: 2f7f 943d 8582 f9bd 7ff9 90bd 2bbf d03d
000000d0: 2baf 99bd a68c 8cbd e596 82bd 9355 dbbd
000000e0: b5ea 973d b816 873d 583a ab3d 9918 b23d
000000f0: a9ee aa3d 6292 8d3d 53ce f33c 37ab bd3d
00000100: ca82 61bd 4321 a4bd 6215 583d 6440 d4bd
00000110: b646 be3d f040 923d 3440 dcbd 6561 aa3d
00000120: 6b5f e3bd eeb1 c3bd b207 853d e39b 99bd
00000130: 93fb cd3d 6abc c03c ecb9 93bd 5968 d6bd
00000140: 483b a13d e39c a23d 6f22 9bbd 77bc a73d
00000150: 0ff8 f1bd 9080 a6bd ddd2 bd3d b89e bc3d
00000160: 1f96 febd 4492 f03d 5934 833d f69b 9fbd
00000170: 4767 c63d 9c27 b8bd 4f4b fcbd fe81 ae3d
00000180: faed 6e3d 2bd5 aa3d 7085 b9bd 9615 093d
00000190: b6d2 d13d 0921 ec3d 9df1 f4bd 322f 683d
000001a0: 836c e4bd be25 993d 0a84 ccbd 9b0c 41bd
000001b0: f108 be3d 85a4 f2bd efba c33d 62e3 b43d
000001c0: eb00 f1bd cd65 d1bd 7749 753d d15f ff3d
000001d0: c7ba 913d 8c7d 8a3d b6d4 f0bd ee3c e5bd
000001e0: f5f3 cd3d 68f2 f4bd 66f9 e1bd 1f03 95bd
000001f0: da6c abbd c682 d73d 9eff 8f3d 054a efbd

weight f4 [128, 128]
0.0336339 -0.05384459 0.06856823 -0.08293256 -0.06529338 -0.091678515 -0.052264348 0.022783209
0.053980496 -0.06634377 0.0030546873 -0.025817342 0.05395126 0.03596406 -0.06839394 0.020814229
-0.07277983 0.04036596 -0.0002593885 -0.008127324 0.016238393 0.05952852 -0.06867724 -0.041939512
0.0051031774 0.02063765 0.058516406 0.08055561 0.065985814 0.036883853 0.018160755 -0.0040032817
-0.04668811 -0.062834345 0.022120416 0.022010773 -0.08502275 -0.021281239 -0.07897684 -0.02655074
0.08390553 -0.061460365 -0.010583018 -0.047182467 0.038124952 0.031772804 0.034993347 -0.07583758
-0.032676876 0.015199943 0.0029360878 -0.0413979 0.064713396 -0.031391174 0.059444163 0.08163062
-0.04475113 -0.026755178 -0.043385707 0.065119565 -0.041628953 -0.0813517 0.07353591 0.06940133
0.09160852 0.058957513 0.011697066 0.051799677 0.0047773803 -0.038024798 0.0026005956 0.037250996
0.038683504 -0.015422052 0.06851968 -0.031446327 -0.08395324 0.06672161 0.043103028 -0.04499534
0.056352224 -0.07681635 0.019624386 0.029845718 0.04350514 -0.048991505 -0.005554652 0.057877563
-0.004887321 -0.07247623 0.069698185 -0.069340706 0.04069306 0.08928437 -0.049554225 0.068462595
-0.050554376 -0.05845127 0.08495796 -0.05741618 -0.023054443 0.007422529 -0.06349337 0.035958737
-0.0045592203 0.06158451 0.087108515 -0.048839826 -0.08214703 0.028697923 0.030391186 0.008411976
0.04033237 0.035262328 0.06696857 -0.07981982 0.0408812 -0.017602898 0.057457604 0.09435514
-0.06291478 0.02342206 0.011981893 -0.027852647 -0.05085465 -0.038284548 0.04561511 0.07380741
-0.05266456 -0.036838695 -0.009277176 0.05890531 0.023386752 -0.06132704 -0.08336853 -0.027837189
0.03823423 0.07595975 0.03677695 0.057261154 0.16973314 0.067467056 0.024483232 -0.038093448
-0.031846393 -0.05436043 -0.10634079 -0.0005636058 -0.034576938 -0.025399717 -0.020018099 0.0107283015
-0.0068957265 0.024624133 0.09606406 0.07152418 -0.03130758 -0.071238875 0.008699341 -0.028827064
0.15372823 0.005607537 -0.04622816 0.03905007 0.036923904 0.05760037 0.039968856 -0.060134266
-0.11718824 -0.06770732 -0.081148915 -0.0123726735 0.062169492 -0.063426964 -0.0933493 0.08205138
-0.029244883 -0.05543448 -0.17412888 0.07202687 0.036966033 -0.18152638 -0.0949962 -0.02109933
0.098077916 -0.01553244 -0.006729901 0.05185272 0.022114187 0.0885376 0.07491327 0.022074737
-0.043994866 -0.023852354 0.08231857 0.05259435 0.054789472 0.047807463 -0.048489224 0.052545737
0.008039292 -0.09232317 0.000115301555 -0.04138565 0.07885713 0.0026870572 -0.072561964 -0.0045541637
0.021480018 -0.058670275 -0.09182804 0.0007609389 0.010349778 -0.06691691 0.004302225 0.08433992
-0.09362841 -0.00010748518 -0.0327988 -0.07761472 0.069199584 0.06677992 0.0050187563 -0.051888973
0.07945712 -0.00093231484 0.055153653 0.1309817 0.045170475 -0.0024840357 -0.02729149 0.09900978
-0.020307317 0.06848071 0.068418734 0.056291427 -0.06503934 -0.071004026 -0.04099272 -0.07231645
0.05431937 0.04312269 -0.059234258 0.2369307 0.058204044 0.04651253 0.015643952 0.009179901
0.073048905 -0.037295617 -0.04462991 -0.03955525 0.0034442071 0.08674508 0.016249713 -0.0233808
00000000: b3c3 093d 258c 5cbd 806d 8c3d 8cd8 a9bd
00000010: 89b8 85bd f2c1 bbbd 2413 56bd daa3 ba3c
00000020: a71a 5d3d 3edf 87bd 2631 483b e47e d3bc
00000030: fffb 5c3d 0d4f 133d 1f12 8cbd 9a82 aa3c
00000040: 970d 95bd c756 253d 89fe 87b9 7828 05bc
00000050: 6106 853c 2dd4 733d a7a6 8cbd c4c8 2bbd
00000060: 8e38 a73b 4a10 a93c e6ae 6f3d 57fa a43d
00000070: 9223 873d 8613 173d ddc5 943c f62d 83bb
00000080: 083c 3fbd 4baf 80bd e035 b53c f04f b43c
00000090: 6820 aebd fe55 aebc 9cbe a1bd f080 d9bc
000000a0: aad6 ab3d ddbd 7bbd 6564 2dbc 6742 41bd
000000b0: e928 1c3d 3324 023d 2f55 0f3d bc50 9bbd
000000c0: 30d8 05bd 2f09 793c 616b 403b d890 29bd
000000d0: 7588 843d 0894 00bd b97b 733d f42d a73d
000000e0: f64c 37bd ad2d dbbc 36b5 31bd 685d 853d
000000f0: 1f83 2abd b89b a6bd ff99 963d 4922 8e3d
00000100: 3f9d bb3d 6f7d 713d 0da5 3f3c e62b 543d
00000110: 928b 9c3b e4bf 1bbd c16e 2a3b 8094 183d
00000120: 9872 1e3d c6ac 7cbc 0c54 8c3d ddcd 00bd
00000130: adef abbd 57a5 883d cd8c 303d 094d 38bd
00000140: 97d1 663d e451 9dbd 52c3 a03c 027f f43c
00000150: 7232 323d 51ab 48bd cc03 b6bb 0611 6d3d
00000160: d225 a0bb 6b6e 94bd ecbd 8e3d 8002 8ebd
00000170: c4ad 263d b9da b63d 5ff9 4abd 1e36 8c3d
00000180: 1b12 4fbd 996a 6fbd 70fe ad3d 3a2d 6bbd
00000190: acdc bcbc b038 f33b d008 82bd 7849 133d
000001a0: 8365 95bb 0a40 7c3d f365 b23d 450c 48bd
000001b0: b43c a8bd e817 eb3c f0f6 f83c 62d2 093c
000001c0: 8e33 253d 3b6f 103d d126 893d 9378 a3bd
000001d0: 0c73 273d f433 90bc aa58 6b3d 453d c13d
000001e0: 77d9 80bd 9fdf bf3c b44f 443c 3c2b e4bc
000001f0: f74c 50bd 42d0 1cbd e9d6 3a3d 5728 973d
00000200: cbb6 57bd 2ce4 16bd 4cff 17bc b246 713d
00000210: 9395 bf3c 1032 7bbd 1fbd aabd d10a e4bc
00000220: 7f9b 1c3d c990 9b3d 6da3 163d ac8a 6a3d
00000230: 86ce 2d3e 2b2c 8a3d 0f91 c83c e007 1cbd
00000240: 5d71 02bd 0ba9 5ebd 33c9 d9bd f2be 13ba
00000250: 8ca0 0dbd 1113 d0bc fffc a3bc c2c5 2f3c
00000260: 8cf5 e1bb 8db8 c93c 3cbd c43d 457b 923d
00000270: 613c 00bd b0e5 91bd ae87 0e3c bc26 ecbc
00000280: ef6a 1d3e 6ebf b73b bd59 3dbd f7f2 1f3d
00000290: 853d 173d 5eee 6b3d 62b6 233d 594f 76bd
000002a0: 6300 f0bd 23aa 8abd 6731 a6bd c1b6 4abc
000002b0: 70a5 7e3d ffe5 81bd eb2d bfbd 8e0a a83d
000002c0: f792 efbc 440f 63bd d74e 32be d382 933d
000002d0: b269 173d 0de2 39be 5e8d c2bd 81d8 acbc
000002e0: 13dd c83d c67b 7ebc 8086 dcbb 8563 543d
000002f0: d028 b53c 3453 b53d 216c 993d 14d6 b43c
00000300: f633 34bd 0366 c3bc a396 a83d 2c6d 573d
00000310: ed6a 603d c2d1 433d a39c 46bd 333a 573d
00000320: 3cb7 033c ee13 bdbd 0dce f138 0084 29bd
00000330: d97f a13d 5719 303b 5e9b 94bd 183b 95bb
00000340: ddf6 af3c 3e50 70bd 5710 bcbd bf79 473a
00000350: 1e92 293c bc0b 89bd aef9 8c3b 68ba ac3d
00000360: 40c0 bfbd ab69 e1b8 0958 06bd 77f4 9ebd
00000370: 83b8 8d3d e9c3 883d 6174 a43b 8889 54bd
00000380: 6aba a23d 9766 74ba cce8 613d 1120 063e
00000390: ad04 393d 34cb 22bb 6792 dfbc a4c5 ca3d
000003a0: 885b a6bc 9d3f 8c3d 1f1f 8c3d d791 663d
000003b0: 5833 85bd 8f6a 91bd fbe7 27bd a61a 94bd
000003c0: fd7d 5e3d 6ba1 303d 9f9f 72bd f69d 723e
000003d0: 5d67 6e3d ec83 3e3d bf27 803c 4c67 163c
000003e0: aa9a 953d 4ac3 18bd dacd 36bd b004 22bd
000003f0: 35b8 613b 68a7 b13d 1e1e 853c 1789 bfbc

bias f4 [128]
0.0018641476 -0.041337486 0.03645653 0.04139303 0.11736543 0.02096148 0.044535257 0.025828205
0.021032223 0.0612952 0.0499768 0.12762265 0.117022 0.03441039 0.053442564 0.11051468
-0.088559605 -0.022337621 0.079833634 -0.027512196 -0.040917423 -0.041159675 0.0408308 0.031013401
0.051316734 0.035608962 0.12220895 0.08461924 0.025649827 -0.02920376 0.048341073 -0.038801216
0.06459905 -0.040128965 -0.06121469 0.099979855 0.07699422 -0.010666068 0.020122293 0.020337079
-0.0018835363 0.10555089 0.075325854 -0.043450136 0.12302397 -0.083205715 0.047501445 0.12328477
-0.041590102 0.021653952 -0.08673722 0.0065771993 0.041849386 0.10675235 -0.059067678 0.0678398
0.04586069 0.019431183 0.070387535 -0.020000083 0.10527422 -0.009262964 0.06845277 0.04160757
-0.032876354 -0.05367788 -0.020346988 -0.05853566 0.014696174 -0.04632354 -0.037126046 -0.050646946
0.036371525 0.08198381 -0.008618858 -0.025355792 0.090769 -0.066016614 0.036605652 0.104753405
0.0982869 0.09479391 -0.07084557 0.10161465 -0.0049006892 0.008324052 0.023218622 0.03429487
0.064532995 0.08309485 0.012273851 0.0013111851 0.0017726385 0.123450436 0.047268867 0.06008277
-0.002107584 -0.019329833 0.049781393 0.12847576 0.111323506 -0.084823675 0.08516304 0.12175048
-0.008164285 -0.019525578 0.022047983 -0.015882367 0.069486834 -0.05046997 0.017648512 0.015668819
0.052373145 -0.019649783 -0.007830906 0.06988853 -0.04315033 0.05870633 0.03841669 -0.02623669
0.11591004 0.12106022 -0.037821244 0.026374841 0.0532077 -0.02834074 0.030235376 -0.010444471
00000000: 6a56 f43a 7f51 29bd 7153 153d bd8b 293d
00000010: 495d f03d 69b7 ab3c 9a6a 363d ac95 d33c
00000020: c54b ac3c ad10 7b3d 79b4 4c3d 83af 023e
00000030: 3ba9 ef3d e9f1 0c3d 97e6 5a3d 8555 e23d
00000040: bd5e b5bd 63fd b6bc d17f a33d 4261 e1bc
00000050: 0799 27bd 0c97 28bd 323e 273d d10f fe3c
00000060: 7f31 523d b4da 113d b048 fa3d da4c ad3d
00000070: 961f d23c b93c efbc 4a01 463d 06ee 1ebd
00000080: 824c 843d 455e 24bd 41bc 7abd 3dc2 cc3d
00000090: 25af 9d3d bbc0 2ebc 82d7 a43c f299 a63c
000000a0: fee0 f6ba 112b d83d 7144 9a3d c5f8 31bd
000000b0: fef3 fb3d c267 aabd e090 423d ba7c fc3d
000000c0: 625a 2abd a163 b13c 49a3 b1bd 8c85 d73b
000000d0: 436a 2b3d faa0 da3d f3f0 71bd 98ef 8a3d
000000e0: 6bd8 3b3d 252e 9f3c 5727 903d 37d7 a3bc
000000f0: 039a d73d b0c3 17bc f730 8c3d b36c 2a3d
00000100: 5ba9 06bd 56dd 5bbd baae a6bc 17c3 6fbd
00000110: 39c8 703c c1bd 3dbd 7b11 18bd 2c73 4fbd
00000120: 4ffa 143d 21e7 a73d 1c36 0dbc f3b6 cfbc
00000130: 19e5 b93d b833 87bd cfef 153d f488 d63d
00000140: a44a c93d 4f23 c23d 7b17 91bd 571b d03d
00000150: f695 a0bb 9b61 083c fb34 be3c c778 0c3d
00000160: e029 843d a22d aa3d 4318 493c 12dc ab3a
00000170: e157 e83a 95d3 fc3d 009d 413d 5a19 763d
00000180: 641f 0abb 9959 9ebc 93e7 4b3d 268f 033e
00000190: 94fd e33d 09b8 adbd f669 ae3d 5158 f93d
000001a0: 7ec3 05bc 1bf4 9fbc f99d b43c bd1b 82bc
000001b0: 1d4f 8e3d 99b9 4ebd 9d93 903c e55b 803c
000001c0: 3985 563d 95f8 a0bc 334d 00bc b821 8f3d
000001d0: 67be 30bd 0c76 703d d25a 1d3d 54ee d6bc
000001e0: 3e62 ed3d 6cee f73d 73ea 1abd 0d10 d83c
000001f0: 51f0 593d d72a e8bc 2eb0 f73c 491f 2bbc

weight f4 [128, 128]
-0.07233285 0.078643754 -0.076314114 -0.019110538 0.028758556 0.0067204894 0.0014994167 -0.053638518
0.083289 -0.029237686 0.026368331 -3.5857636e-05 0.030580955 0.028488547 0.058965832 -0.0026572945
-0.030630207 0.037801594 -0.03539293 -0.004862463 -0.024814608 0.04586304 0.0070006587 0.10134389
-0.059500445 0.026415948 -0.056260336 0.037918884 0.109607525 0.05781429 -0.014046318 -0.049782358
0.09162888 0.013644826 -0.012511039 0.002103337 0.043412562 -0.050085533 0.09858348 -0.0357362
-0.0029413053 0.06947308 -0.020174213 -0.0053362614 0.07271792 0.017035462 0.0018326613 0.0022898128
-0.014144632 -0.008700724 -0.056105956 0.038543765 -0.037369866 0.00010505173 -0.071835056 -0.004037371
0.07768392 0.082086004 -0.04866538 0.07944199 0.10036348 -0.05067405 -0.015577595 -0.042691883
0.10845406 0.016045189 0.0015255591 0.22877523 0.08920617 -0.051768824 0.07949276 -0.043198008
-0.025359457 -0.040809993 0.056905467 0.056379903 -0.011234125 0.049465027 0.029625442 0.06569973
0.07790032 0.046354514 -0.085819714 -0.041137625 -0.00095676497 0.107852995 0.0077149724 0.024189644
0.11953231 0.0016959507 0.1105219 0.096852295 0.08026363 0.09427437 -0.037922733 0.0063004754
0.09994042 0.06956317 0.11125776 -0.019965991 0.027583137 0.058727227 0.10084237 0.0752204
0.0066640945 -0.034638908 -0.061605465 0.099109836 0.09938889 -0.039712876 0.08267329 0.08456811
0.04958086 0.08532305 -0.06365196 -0.05339305 0.03421874 -0.026591914 -0.0033295883 0.026452255
0.04418223 0.080469966 0.10641056 0.11175247 0.06030892 0.018254586 -0.025113963 0.044443402
0.010974464 0.027487282 -0.05999855 0.025931312 -0.034583014 -0.06482169 0.07079552 0.014219475
0.046987474 -0.07639009 0.0654826 0.0018833753 0.10380256 0.0202077 -0.007289033 0.1058362
-0.037816495 0.051951252 -0.02012615 0.05613441 -0.04211797 0.06963719 -0.05286968 -0.047009084
0.09707075 0.05446322 0.05062287 0.08801866 -0.042954773 0.0128915645 0.004382354 0.07431667
-0.03272577 0.06929664 0.048771754 0.045765333 -0.030538544 -0.0467955 -0.020342119 -0.03803785
-0.05439265 -0.048994537 -0.013530531 -0.054941982 -0.036624487 0.028347377 -0.03971085 0.092702374
0.057097275 0.054913748 0.065524414 0.034430675 -0.0071447743 -0.00087953894 0.044842836 0.022798965
-0.028467717 0.005773669 0.10410031 0.09619895 -0.023343723 0.031342417 0.07009917 -0.064532906
0.03542181 0.06411072 -0.029375467 0.05074423 -0.003200227 -0.0007970452 0.060001545 -0.00236556
-0.047535926 0.065586604 -0.03875262 0.04245858 0.021545256 -0.0015283464 0.03709819 0.015392112
0.037027694 0.034150075 -0.01421564 0.10184324 -0.028501993 0.021617709 0.021927629 -0.046873905
0.01377865 -0.0133125195 0.016926726 0.07431844 0.014129546 0.10740143 0.074748844 -0.09088784
0.08177584 -0.028842561 0.01109541 0.021044107 0.034738 -0.085753456 0.11110659 0.076325215
0.06114217 0.016673163 0.009836696 -0.06410012 -0.048197694 -0.01415287 -0.01870286 0.1031929
0.1130137 -0.060961664 0.06810302 0.10173699 0.05531751 0.093641825 -0.06135567 -0.012757076
-0.06120524 -0.02516656 -0.04919886 0.06419335 -0.028838737 0.058272474 0.095396444 0.08865863
00000000: 3f23 94bd fa0f a13d 934a 9cbd b48d 9cbc
00000010: 1097 eb3c 8d37 dc3b 1388 c43a 10b4 5bbd
00000020: 6c93 aa3d df83 efbc 6602 d83c d865 16b8
00000030: e984 fa3c d060 e93c 2886 713d 0126 2ebb
00000040: 33ec fabc d8d5 1a3d 2df8 10bd 4c55 9fbb
00000050: 0148 cbbc e2da 3b3d c865 e53b 638d cf3d
00000060: bdb6 73bd 4266 d83c 3d71 66bd d550 1b3d
00000070: e979 e03d adce 6c3d 8722 66bc 96e8 4bbd
00000080: eca7 bb3d 8c8e 5f3c 1afb 4cbc 24d8 093b
00000090: 5fd1 313d 7d26 4dbd 23e6 c93d 1f60 12bd
000000a0: eac2 40bb e747 8e3d 6444 a5bc cedb aebb
000000b0: 22ed 943d f48d 8b3c e935 f03a af10 163b
000000c0: e3be 67bc 7b8d 0ebc 5ccf 65bd 11e0 1d3d
000000d0: 2511 19bd 384f dc38 421e 93bd ec4b 84bb
000000e0: bf18 9f3d b51c a83d 5955 47bd 7bb2 a23d
000000f0: 5e8b cd3d 988f 4fbd 2b39 7fbc afdd 2ebd
00000100: 2a1d de3d 3371 833c 45f5 c73a 0e44 6a3e
00000110: b9b1 b63d 8c0b 54bd 1acd a23d 65f0 30bd
00000120: a3be cfbc 6128 27bd b515 693d 9dee 663d
00000130: 560f 38bc d79b 4a3d 0eb1 f23c 948d 863d
00000140: 348a 9f3d 3bde 3d3d 3fc2 afbd ed7f 28bd
00000150: 69cf 7aba 08e2 dc3d e1cd fc3b 5c29 c63c
00000160: 5bcd f43d aa4a de3a 4e59 e23d 7f5a c63d
00000170: 4261 a43d ec12 c13d de54 1bbd 3874 ce3b
00000180: 90ad cc3d 2377 8e3d 1cdb e33d b88f a3bc
00000190: 08f6 e13c f68b 703d 7286 ce3d 270d 9a3d
000001a0: 7a5e da3b 87e1 0dbd 0356 7cbd 19fa ca3d
000001b0: 678c cb3d f8a9 22bd 9d50 a93d 0c32 ad3d
000001c0: 4d15 4b3d dabd ae3d f55b 82bd acb2 5abd
000001d0: f328 0c3d 49d7 d9bc 3935 5abb 66b2 d83c
000001e0: 6df8 343d 70cd a43d c8ed d93d 7bde e43d
000001f0: 7c06 773d a48a 953c ccbb cdbc 490a 363d
00000200: 3dce 333c 022d e13c 0ac1 75bd e76d d43c
00000210: eba6 0dbd 3cc1 84bd 3efd 903d cdf8 683c
00000220: f075 403d 6872 9cbd be1b 863d 97db f63a
00000230: 7096 d43d 9e8a a53c d7d8 eebb a6c0 d83d
00000240: 78e5 1abd d6ca 543d 99df a4bc 32ed 653d
00000250: e483 2cbd f19d 8e3d e18d 58bd 998c 40bd
00000260: 08cd c63d d314 5f3d ed59 4f3d 2143 b43d
00000270: 58f1 2fbd 2437 533c da99 8f3b 5733 983d
00000280: 750b 06bd 66eb 8d3d e4c4 473d 6e74 3b3d
00000290: f82b fabc a3ac 3fbd 84a4 a6bc 94cd 1bbd
000002a0: d4ca 5ebd 7fae 48bd 29af 5dbc d80a 61bd
000002b0: 8f03 16bd c238 e83c d8a7 22bd beda bd3d
000002c0: d5de 693d 3ded 603d aa31 863d 2e07 0d3d
000002d0: b61e eabb dc90 66ba 1fad 373d e5c4 ba3c
000002e0: 2135 e9bc 0c31 bd3b 8b32 d53d f503 c53d
000002f0: 563b bfbc e860 003d 2790 8f3d d429 84bd
00000300: 7616 113d 7b4c 833d d2a4 f0bc 2fd9 4f3d
00000310: e6ba 51bb ccf0 50ba 2ec4 753d 8307 1bbb
00000320: 08b5 42bd 4552 863d 11bb 1ebd 0ce9 2d3d
00000330: ad7f b03c cc52 c8ba 46f4 173d 322f 7c3c
00000340: 5aaa 173d f3e0 0b3d b7e8 68bc 3093 d03d
00000350: 037d e9bc 9f17 b13c 92a1 b33c dafe 3fbd
00000360: d9bf 613c c11c 5abc eba9 8a3c 4434 983d
00000370: 9c7f 673c 48f5 db3d ec15 993d 6723 babd
00000380: 177a a73d 3c47 ecbc 86c9 353c b164 ac3c
00000390: 6f49 0e3d 829f afbd da8b e33d 6550 9c3d
000003a0: 3670 7a3d 2896 883c 182a 213c ec46 83bd
000003b0: f26a 45bd 70e1 67bc be36 99bc cd56 d33d
000003c0: ba73 e73d f0b2 79bd 9979 8b3d 7c5b d03d
000003d0: 9d94 623d 49c7 bf3d 1550 7bbd 0e03 51bc
000003e0: 59b2 7abd 1a2a cebc be84 49bd ce77 833d
000003f0: 373f ecbc 1eaf 6e3d 365f c33d a892 b53d

bias f4 [128]
-0.038958605 0.059089217 0.075614884 0.12940602 0.024271106 -0.07857516 -0.05322523 -0.038884636
0.118879005 0.053354915 -0.0713132 0.05902773 0.049301352 0.018598812 0.051190227 0.09863676
-0.062217113 0.104375236 0.10088247 -0.050264455 -0.08830896 0.080263786 0.117652014 -0.0020699007
-0.014633533 0.08618553 -0.067081116 0.04900995 0.066900596 -0.063397266 0.008122953 0.057194695
-0.045633223 -0.00999011 -0.04043715 0.020771105 0.11579846 -0.026272066 0.10044855 0.009063286
0.05862604 0.10055463 -0.03739009 0.022066055 0.10511016 0.08164178 -0.029913606 0.03911762
0.017146012 0.041456535 -0.017208735 0.041631714 0.049973533 0.012078952 -0.0457246 -0.033981103
-0.08787728 -0.031446785 0.08182458 0.08600146 -0.04513234 0.012639081 0.037733577 0.020324409
0.042973507 -0.0378313 0.014590547 -0.039637204 0.08949868 0.044954993 -0.069293745 0.06176892
0.056358844 -0.006419078 0.026333967 0.1173555 0.04416042 0.09455814 -0.09015871 0.012491631
0.09555682 -0.02319743 0.018093267 0.05760456 -0.08044074 0.047857426 -0.011225373 0.057258207
-0.058897953 -0.042843774 -0.09338767 -0.03368734 -0.00033856108 0.070440345 0.046336744 0.059262216
0.033162195 0.027188584 -0.05329089 0.04881895 0.12228997 -0.011781701 -0.011055048 0.02925264
0.011670149 0.02841431 0.12560217 0.015488685 0.09852481 0.04116776 0.117715955 0.062127165
0.04172365 -0.013811798 -0.06055109 0.116985545 0.018274894 0.002723241 0.094544254 0.07422122
-0.0231584 0.11642003 0.07474506 0.10008532 0.1109243 0.025945602 -0.029182168 0.029613098
00000000: 0f93 1fbd 8907 723d fadb 9a3d 0383 043e
00000010: 33d4 c63c 03ec a0bd b302 5abd 7f45 1fbd
00000020: d676 f33d af8a 5a3d a80c 92bd 10c7 713d
00000030: 37f0 493d 895c 983c d8ac 513d 1202 ca3d
00000040: 5fd7 7ebd afc2 d53d 789b ce3d 1ae2 4dbd
00000050: 54db b4bd 5761 a43d 8af3 f03d 2ca7 07bb
00000060: 7cc1 6fbc 0a82 b03d d361 89bd a8be 483d
00000070: 2e03 893d 6dd6 81bd 2216 053c fc44 6a3d
00000080: e7e9 3abd 8fad 23bc 6da1 25bd 2a28 aa3c
00000090: be27 ed3d 8438 d7bc f8b7 cd3d 2d7e 143c
000000a0: dc21 703d 96ef cd3d 5a26 19bd dfc3 b43c
000000b0: ff43 d73d ce33 a73d 610d f5bc cc39 203d
000000c0: cb75 8c3c 54ce 293d 55f9 8cbc 0486 2a3d
000000d0: 0cb1 4c3d cce6 453c b849 3bbd c52f 0bbd
000000e0: 01f9 b3bd 58ce 00bd a593 a73d 8921 b03d
000000f0: b0dc 38bd 2614 4f3c 868e 1a3d 607f a63c
00000100: fd04 303d fef4 1abd 310d 6f3c 9f5a 22bd
00000110: 154b b73d ba22 383d e1e9 8dbd 6801 7d3d
00000120: 88d8 663d 2157 d2bb 55ba d73c 1558 f03d
00000130: 8ee1 343d b3a7 c13d 21a5 b8bd b3a9 4c3c
00000140: 4bb3 c33d 8908 bebc 5538 943c c2f2 6b3d
00000150: 1dbe a4bd 2606 443d a0ea 37bc 9587 6a3d
00000160: fb3e 71bd f47c 2fbd 0942 bfbd bcfb 09bd
00000170: e680 b1b9 0743 903d 99cb 3d3d f0bc 723d
00000180: 15d5 073d 98ba de3c 8c47 5abd 61f6 473d
00000190: 2a73 fa3d 0908 41bc 3b20 35bc 3ca3 ef3c
000001a0: 2734 3f3c 21c5 e83c db9d 003e 41c4 7d3c
000001b0: 60c7 c93d 869f 283d 1015 f13d 0e79 7e3d
000001c0: 6be6 2a3d e14a 62bc 6b04 78bd 1e96 ef3d
000001d0: 3bb5 953c 6778 323b 6ba0 c13d 4c01 983d
000001e0: afb6 bdbc a06d ee3d f013 993d 88f9 cc3d
000001f0: 482c e33d df8b d43c 710f efbc 2b97 f23c

weight f4 [128, 128]
0.07081217 -0.063392565 0.0097993845 -0.067499496 -0.012467343 -0.026238805 -0.037189063 -0.06461721
-0.068545714 -0.08765177 0.005447796 9.958247e-05 0.041652318 -0.038025983 0.072309196 0.058975387
-0.057476964 -0.07074942 -0.040363837 -0.044558037 -0.076416925 -0.064121015 -0.002086722 0.0527841
-0.0003591965 -0.08372413 -0.015625238 -0.028065681 -0.021458445 -0.026604112 0.06440778 -0.056530207
-0.036402747 0.0115127275 0.02784677 -0.07704405 0.08690758 0.077605635 -0.07700418 -0.07439246
-0.07843699 0.085003294 -0.07379248 0.0694166 -0.07963373 -0.005604846 0.071879216 0.08803273
-0.08694337 0.012932666 -0.003191981 -0.07446446 -0.06433907 0.043329235 0.0009897449 -0.06764483
-0.056268465 -0.073334254 0.033189274 0.04355174 -0.047119018 -0.05441591 -0.014390588 0.021528462
-0.06271313 -0.045092344 -0.018940067 -0.074975714 -0.0059815124 0.049843643 0.03413195 -0.033580553
0.007909099 -0.005929893 0.08558422 -0.08752691 0.07635343 0.045680113 -0.076236576 -0.045010116
-0.019556854 0.039741285 0.02373839 0.08271033 0.08438505 0.08061711 -0.07885194 0.083432436
-0.041801833 0.050099358 0.040046882 0.08558244 -0.01145172 0.01686171 0.038747504 -0.06607737
-0.009049982 0.061857063 -0.07521005 0.024427153 -0.066174336 0.00405498 -0.07790064 -0.005732593
-0.0012297818 0.057829868 -0.0734473 0.07239833 -0.07306894 0.07756318 0.06221331 0.066635676
-0.05348673 -0.0684334 0.059988167 0.018533686 -0.06288397 0.027320977 0.046955876 -0.080753095
-0.061434638 -0.061068002 0.005732909 -0.029071273 0.0089991735 -0.08299519 -0.036027253 0.037533473
0.0026162446 -0.06929846 -0.04663089 -0.07814741 -0.07238687 -0.07875688 -0.004643139 -0.052366853
0.03832109 0.042743392 -0.020826517 0.07579982 -0.078389876 0.025835576 0.027614309 0.09127557
0.06772549 -0.011711689 -0.06925746 0.039507106 -0.08009024 -0.041885097 -0.035999246 0.08987214
-0.040930383 -0.059690703 -0.009731285 0.07856628 0.07888957 0.004821817 -0.014806614 -0.03413514
-0.07487592 0.058878634 0.075406305 0.03000743 -0.042496283 0.053753667 -0.059003595 -0.029771483
-0.020924062 -0.006695737 -0.035269603 0.0044699456 -0.04334199 -0.06686677 0.03575422 -0.0006323435
0.038697414 0.011326854 0.090952 -0.0053016148 0.026863877 0.048738018 -0.009713164 0.07357106
0.009974822 -0.059251484 0.025179755 -0.023968434 -0.017110724 -0.023280375 0.08443075 0.056786947
-0.007137574 -0.024749886 -0.04401993 -0.045257896 -0.06416896 0.048648167 0.070260346 -0.07022979
-0.057446625 0.042336613 0.049686834 -0.043887947 0.065481916 -0.075845845 0.001800781 -0.0063925227
-0.040885363 -0.031545356 -0.009065086 0.0029869834 0.06709848 0.05021151 -0.0010313697 -0.06978304
0.0719744 -0.075244986 -0.040926836 0.059187338 0.05260546 -0.057628687 0.08588603 0.060326956
0.019565724 0.09351592 0.08014325 -0.00715896 -0.053375967 -0.024621679 -0.07334953 0.012353139
-0.012645765 -0.06295414 0.043329727 0.016423069 -0.005106395 0.021034082 -0.007617415 0.08146596
-0.02913558 -0.048945017 -0.05014323 -0.0056704613 -0.0033904444 -0.0020298602 0.038773652 -0.03522779
0.026850516 0.006285944 0.064624645 -0.07201589 0.05308487 -0.0046742745 0.0068620928 -0.06357844
00000000: f905 913d f6d3 81bd 998d 203c 2d3d 8abd
00000010: d443 4cbc c3f2 d6bc 8f53 18bd 0756 84bd
00000020: b261 8cbd c582 b3bd 6d83 b23b eed6 d038
00000030: 9f9b 2a3d 22c1 1bbd d816 943d 2d90 713d
00000040: f76c 6bbd 12e5 90bd 8d54 25bd 7d82 36bd
00000050: 7a80 9cbd e151 83bd 63c1 08bb 2434 583d
00000060: 8a52 bcb9 8f77 abbd 8000 80bc 00ea e5bc
00000070: 9fc9 afbc def0 d9bc 3ae8 833d 388c 67bd
00000080: 0c1b 15bd e19f 3c3c e91e e43c 45c9 9dbd
00000090: 9afc b13d b4ef 9e3d 5eb4 9dbd 135b 98bd
000000a0: 93a3 a0bd 3516 ae3d 8320 97bd 4a2a 8e3d
000000b0: 0217 a3bd dba8 b7bb 6935 933d 814a b43d
000000c0: 5e0f b2bd 88e3 533c 8e30 51bb d380 98bd
000000d0: 34c4 83bd ff79 313d 54ba 813a 5f89 8abd
000000e0: c379 66bd 4530 96bd 7af1 073d 4f63 323d
000000f0: dfff 40bd 38e3 5ebd 80c6 6bbc 755c b03c
00000100: be6f 80bd c0b2 38bd 3328 9bbc de8c 99bd
00000110: 9000 c4bb d928 4c3d f2cd 0b3d c38b 09bd
00000120: 2a95 013c 8c4f c2bb c846 af3d 4f41 b3bd
00000130: 305f 9c3d 121b 3b3d ec21 9cbd 875c 38bd
00000140: b235 a0bc c2c7 223d 0377 c23c 0964 a93d
00000150: 12d2 ac3d 951a a53d 207d a1bd a0de aa3d
00000160: 6638 2bbd fc34 4d3d 3308 243d d945 af3d
00000170: ff9f 3bbc 9221 8a3c b4b5 1e3d 9253 87bd
00000180: 6046 14bc d55d 7d3d ba07 9abd 741b c83c
00000190: 6986 87bd a3df 843b 5f8a 9fbd 7ad8 bbbb
000001a0: a130 a1ba 03df 6c3d 8a6b 96bd 9345 943d
000001b0: 2ba5 95bd 72d9 9e3d 62d3 7e3d 4978 883d
000001c0: e714 5bbd cf26 8cbd 27b6 753d f5d3 973c
000001d0: 50c9 80bd 3ed0 df3c ce54 403d e161 a5bd
000001e0: e3a2 7bbd 7122 7abd 20db bb3b e126 eebc
000001f0: 4571 133c 62f9 a9bd 5091 13bd b3bc 193d
00000200: 4d75 2b3b 5aec 8dbd 0800 3fbd c00b a0bd
00000210: 913f 94bd 494b a1bd 7925 98bb a07e 56bd
00000220: 93f6 1c3d b213 2f3d 5f9c aabc f03c 9b3d
00000230: df8a a0bd 21a5 d33c 6737 e23c b0ee ba3d
00000240: a9b3 8a3d 62e2 3fbc dbd6 8dbd 34d2 213d
00000250: 5a06 a4bd b58f 2bbd f273 13bd e20e b83d
00000260: 9ea6 27bd 3d7e 74bd f86f 1fbc 5ce7 a03d
00000270: db90 a13d 5500 9e3b 7197 72bc 4ad1 0bbd
00000280: 8c58 99bd b92a 713d 9f6e 9a3d 24d2 f53c
00000290: 9510 2ebd ce2c 5c3d c1ad 71bd 53e3 f3bc
000002a0: f068 abbc ea67 dbbb dc76 10bd 9f78 923b
000002b0: 5f87 31bd 72f1 88bd 0473 123d dbc3 25ba
000002c0: 2e81 1e3d 4594 393c 0b45 ba3d 2bb9 adbb
000002d0: a211 dc3c 84a1 473d f623 1fbc 6dac 963d
000002e0: 706d 233c afb1 72bd c645 ce3c 7359 c4bc
000002f0: ca2b 8cbc 7cb6 bebc 07ea ac3d 6e99 683d
00000300: 4fe2 e9bb 46c0 cabc 3e4e 34bd 5860 39bd
00000310: 046b 83bd 4d43 473d a8e4 8f3d a3d4 8fbd
00000320: 274d 6bbd 2869 2d3d 6c84 4b3d d9c3 33bd
00000330: 621b 863d 1155 9bbd 2f08 ec3a 5e78 d1bb
00000340: 6977 27bd b435 01bd ba85 14bc 44c1 433b
00000350: ee6a 893d 96aa 4d3d 062f 87ba 69ea 8ebd
00000360: 5067 933d 0b1a 9abd e6a2 27bd 6c6e 723d
00000370: d378 573d 0f0c 6cbd 04e5 af3d 6619 773d
00000380: 4c48 a03c 4685 bf3d 2522 a43d b695 eabb
00000390: c2a0 5abd 67b3 c9bc 4738 96bd d264 4a3c
000003a0: 2f30 4fbc 1aee 80bd 837a 313d ac89 863c
000003b0: 8c53 a7bb ab4f ac3c 829b f9bb a0d7 a63d
000003c0: bdad eebc 927a 48bd fd62 4dbd 47cf b9bb
000003d0: 3832 5ebb 6707 05bb 1fd1 1e3d 044b 10bd
000003e0: 9df5 db3c 52fa cd3b ed59 843d 117d 93bd
000003f0: 856f 593d a82a 99bb 68db e03b 6a35 82bd

bias f4 [128]
-0.01043282 0.0821984 0.0416829 -0.019643791 0.12547533 -0.009314061 0.042572852 0.031572577
0.04557153 -0.07695346 0.011629158 0.07299024 -0.026359912 0.054279763 -0.013119313 0.07813419
0.08751154 -0.058249008 0.00698035 0.08474659 -0.017894393 0.040156573 0.076533794 -0.052320126
0.07245632 0.10691358 0.012565665 -0.03653957 0.019699737 0.072107024 0.04983194 -0.07842164
0.101626895 0.08052906 0.031662017 -0.014116348 0.0075912667 -0.08491857 -0.048417952 0.04407076
-0.06944772 0.064063214 0.11355401 -0.012221376 0.12465239 0.06997496 0.018338095 0.03165203
-0.06039301 0.12173194 -0.053447038 0.05673749 0.10564317 -0.04697739 0.010937998 0.061507005
0.012799024 0.093719356 -0.06319623 0.011029011 -0.043542784 0.11330687 0.05054791 0.02757387
-0.040063746 -0.056833435 -0.035616484 -0.037350096 -0.051495988 -0.0324181 -0.067547575 0.1180217
0.074115835 0.07184376 0.12623307 0.06257572 0.097361855 0.046048183 -0.006111844 0.0340883
-0.056572393 0.06553306 0.06001531 0.05607986 -0.08177353 0.07527012 -0.066874385 -0.056086
0.05019837 -0.03882401 0.09235454 -0.07808428 0.10592311 0.030739972 -0.015744248 0.11394376
-0.02983497 -0.064891614 0.10959969 0.035259012 0.07176025 -0.016685808 0.05067644 0.064001024
-0.032531768 0.030950608 -0.07476415 0.12398066 -0.038713377 -0.01892293 -0.0016901649 -0.033831775
0.10611838 0.037588026 0.0037102227 0.016357586 -0.04791497 0.010978186 0.01533373 0.034688458
0.041491978 -0.053658668 0.020530986 -0.021569612 -0.067536175 0.027845277 0.0420106 -0.03653557
00000000: 6bee 2abc a257 a83d b0bb 2a3d 04ec a0bc
00000010: 9b7c 003e 019a 18bc df60 2e3d 3f52 013d
00000020: 36a9 3a3d c799 9dbd 3988 3e3c e87b 953d
00000030: bef0 d7bc 7554 5e3d 63f2 56bc d104 a03d
00000040: 4039 b33d 8396 6ebd 6bbb e43b 9f8f ad3d
00000050: 4397 92bc 387b 243d c0bd 9c3d a14d 56bd
00000060: fb63 943d 82f5 da3d 38e0 4d3c 84aa 15bd
00000070: 5861 a13c d9ac 933d 941c 4c3d 869b a0bd
00000080: c321 d03d 6bec a43d 08b0 013d 4148 67bc
00000090: 29c0 f83b cae9 adbd e751 46bd 8b83 343d
000000a0: 9b3a 8ebd 9333 833d 018f e83d 2b3c 48bc
000000b0: c149 ff3d 084f 8f3d c639 963c 8fa5 013d
000000c0: a95e 77bd 984e f93d 48eb 5abd 9265 683d
000000d0: 725b d83d 5d6b 40bd 4a35 333c c5ee 7b3d
000000e0: ffb2 513c efef bf3d 066d 81bd 06b3 343c
000000f0: eb59 32bd 6f0d e83d 530b 4f3d 99e2 e13c
00000100: e219 24bd 2dca 68bd 97e2 11bd 6afc 18bd
00000110: 75ed 52bd d7c8 04bd 6256 8abd 5cb5 f13d
00000120: 0bca 973d d222 933d 3e43 013e b327 803d
00000130: a765 c73d 059d 3c3d dd45 c8bb 2ca0 0b3d
00000140: 74b8 67bd 3236 863d 9dd2 753d ffb3 653d
00000150: e178 a7bd 3827 9a3d 70f5 88bd 6fba 65bd
00000160: ce9c 4d3d ed05 1fbd 6124 bd3d a7ea 9fbd
00000170: 37ee d83d 65d2 fb3c 15fa 80bc 595b e93d
00000180: 7868 f4bc e5e5 84bd cd75 e03d c16b 103d
00000190: 0af7 923d adb0 88bc 1992 4f3d f812 833d
000001a0: 0840 05bd 218c fd3c f21d 99bd 93e9 fd3d
000001b0: eb91 1ebd 4304 9bbc 8688 ddba 3093 0abd
000001c0: 9854 d93d e7f5 193d 3527 733b 5800 863c
000001d0: 7d42 44bd d9dd 333c 533a 7b3c 7c15 0e3d
000001e0: 7ef3 293d 31c9 5bbd 9930 a83c c1b2 b0bc
000001f0: 6850 8abd c71b e43c 4f13 2c3d 52a6 15bd

weight f4 [1, 128]
-0.011633109 0.05764543 -0.07418505 -0.062198028 0.12078518 0.045200694 -0.017257046 0.052723836
0.034308013 0.0016719195 0.008957278 0.076291755 -0.012850618 0.08122023 0.04818044 0.066208065
0.08117789 0.016390108 0.094649956 0.06777241 -0.019468904 -0.0075101997 -0.07563204 -0.05890542
0.0684172 0.12039086 0.0941924 0.040393922 0.07289612 0.075229004 0.033574305 0.015669776
0.07823035 0.06801588 0.11030793 -0.03579641 -0.010021286 -0.011049452 0.09667904 0.0923106
0.050885458 0.0012627392 0.07382534 0.060827047 0.06304252 -0.018097095 -0.05551657 0.057021093
0.06234717 0.074843995 -0.08109665 -0.057692986 0.10113362 0.06333821 0.026184201 0.088823244
0.09483258 0.102819316 0.0015508914 0.008683744 -0.085224256 0.07262158 -0.061747886 -0.009397745
-0.03765459 -0.071396686 -0.026154896 -0.059554327 0.07851865 0.10476618 -0.04267024 0.0627459
0.035334893 0.06728655 0.06539054 0.090027705 0.105708815 0.06994717 -0.05685234 0.095011264
0.10420927 0.034386106 0.116154686 0.097142436 0.060308397 0.023243388 0.073479876 -0.05772977
0.117996104 -0.07577192 0.10237059 -0.0016758587 0.058556505 0.00024165143 0.09483495 0.10929544
0.03992051 -0.011809167 0.05572852 0.002434871 0.107888825 0.081923045 -0.014913189 0.0022451608
0.08583777 0.022742637 0.02399929 0.047739282 -0.02963013 0.04468304 -0.021870045 0.010554563
0.11993287 0.07708599 -0.044493575 0.055567298 -0.038156807 0.030026602 -0.050646584 -0.07978887
0.0059681023 -0.04304659 0.0576736 0.04357758 0.009416459 0.10901061 -0.039974593 -0.018235993
00000000: cc98 3ebc 9d1d 6c3d 55ee 97bd 5cc3 7ebd
00000010: 385e f73d 5d24 393d a65e 8dbc f3f4 573d
00000020: 8f86 0c3d 4f24 db3a 8cc1 123c da3e 9c3d
00000030: 668b 52bc cb56 a63d da58 453d 1898 873d
00000040: 9840 a63d 8c44 863c d6d7 c13d 43cc 8a3d
00000050: 407d 9fbc 1f18 f6bb f9e4 9abd cf46 71bd
00000060: 511e 8c3d 7c8f f63d f2e7 c03d 1974 253d
00000070: 904a 953d aa11 9a3d 3685 093d e75d 803c
00000080: 3c37 a03d e94b 8b3d 20e9 e13d 429f 12bd
00000090: 5230 24bc c308 35bc a9ff c53d 570d bd3d
000000a0: 456d 503d 7f82 a53a bd31 973d c825 793d
000000b0: 701c 813d 5c40 94bc 5865 63bd f38e 693d
000000c0: bf5f 7f3d cf47 993d 0016 a6bd 7b4f 6cbd
000000d0: 251f cf3d 77b7 813d 4080 d63c f6e8 b53d
000000e0: 9537 c23d ef92 d23d 4847 cb3a 4346 0e3c
000000f0: 0e8a aebd 9fba 943d 5aeb 7cbd 00f9 19bc
00000100: b33b 1abd 6d38 92bd cb42 d6bc 3def 73bd
00000110: 63ce a03d a78f d63d fdc6 2ebd ec80 803d
00000120: 52bb 103d 88cd 893d 7aeb 853d 7260 b83d
00000130: dd7d d83d 7640 8f3d 00de 68bd 4495 c23d
00000140: ab6b d53d 72d8 0c3d 82e2 ed3d 9df2 c63d
00000150: f005 773d eb68 be3c 9e7c 963d 0d76 6cbd
00000160: f1a7 f13d 4f2e 9bbd aca7 d13d 7da8 dbba
00000170: f2d8 6f3d d063 7d39 d438 c23d 4ad6 df3d
00000180: b083 233d 3d7b 41bc 9743 643d 5b92 1f3b
00000190: d1f4 dc3d 45c7 a73d 7356 74bc 8c23 133b
000001a0: b6cb af3d c44e ba3c 299a c43c 448a 433d
000001b0: e3ba f2bc 9005 373d cf28 b3bc 0ced 2c3c
000001c0: 5d9f f53d 42df 9d3d e53e 36bd 899a 633d
000001d0: 504a 1cbd 59fa f53c cb72 4fbd 5968 a3bd
000001e0: 1290 c33b 9f51 30bd 273b 6c3d 687e 323d
000001f0: 7e47 1a3c f440 df3d 66bc 23bd a663 95bc
