pretrained/ani_bonds.pt (torch, 784263 bytes, 9 tensors)

weight f4 [128, 1133]
-0.032751285 -0.1772674 0.0011235006 -0.042295437 -0.037082132 0.017957589 -0.045195743 -0.07805645
-0.06987379 0.06543899 0.010193776 0.015311557 0.011475985 0.050581586 -0.04943916 -0.058822315
-0.023363091 -0.0027801103 -0.027670842 -0.034117527 -0.03277797 -0.0897258 -0.05080527 0.008402514
-0.04100186 -0.040447444 -0.022305993 0.0043121343 -0.021011671 -0.022436634 -0.025552409 -0.02664993
-0.012495714 0.010834339 -0.025515985 0.0032783344 0.0016987012 -0.008770746 -0.024716225 -0.021843402
-0.006359711 -0.009012699 -0.058864146 -0.08359529 0.0011395023 -0.015849467 -0.037857536 -0.057803564
0.008066527 -0.015606341 -0.061373256 -0.04859326 0.0019688113 -0.006304776 -0.039977696 -0.03445914
-0.028510801 -0.0013326772 -0.036812138 -0.0053021824 -0.0016853528 0.0017498899 -0.0023974995 -0.05588996
-0.28443038 -0.030517705 -0.039390832 -0.031519618 -0.027329855 -0.05541155 -0.03229631 -0.16362599
0.0036273731 -0.05005523 -0.006345603 -0.0032365962 0.01749432 0.015098447 -0.026827654 0.017357394
-0.0033167175 -0.019519664 -0.022651216 -0.009619524 -0.012432882 -0.026885206 0.021805393 -0.007563542
-0.027774896 -0.021950074 -0.012751874 -0.001253886 0.023569537 -0.035384577 -0.04350128 0.011939589
0.009346945 0.003592054 -0.0038314918 -0.045051143 0.0075133 -0.014696624 -0.03884407 -0.04447216
0.010797466 -0.057718456 -0.07929158 -0.047944583 -0.007448338 -0.018511675 -0.006611679 -0.02152434
-0.015741928 -0.010602697 -0.0031520578 0.026943095 0.0120724235 0.026092365 -0.015695374 -0.025743099
-0.027297162 0.028474344 -0.009360978 -0.02659038 0.02745814 0.008604283 -0.021097496 -0.017604528
0.025367025 0.028179208 -0.018665882 -0.02905833 0.026215253 -0.02863042 0.008180404 0.013991102
-0.009011868 -0.010387415 -0.00956703 0.012682193 0.01777649 -0.08657339 0.0061832545 0.007126766
-0.0036058717 0.033244487 -0.041446097 -0.03660841 -0.001776328 -0.048627574 -0.034506936 0.010124849
0.019544952 0.013933555 -0.01666992 0.026206253 0.015133703 -0.027474437 0.009895644 -0.019905284
-0.026679965 0.029541057 0.008219451 -0.0002795109 -0.007858997 0.0061345845 -0.006746011 0.013543541
0.014763227 -0.026782071 -0.008777817 -0.017234173 0.027715217 -0.04607497 0.027698165 0.03459819
0.008370308 -0.053729415 -0.012401207 -0.028268194 -0.008753331 -0.019591123 -0.039045747 -0.00039445877
0.028965602 0.009417705 0.014708979 -0.022179939 -0.018254811 0.084701546 0.0071716807 -0.04641226
0.014131564 -0.10955353 -0.018512683 -0.022875093 0.035082605 -0.051213183 -0.05831254 0.002054119
-0.031378757 -0.0017559426 0.011629386 0.027675644 -0.016490301 0.016710138 0.028314393 0.023824837
0.012601442 0.028613674 0.013193567 0.021893686 -0.027748423 -0.028603937 0.014916843 -0.008297521
-0.022395365 -0.0050334944 0.0047729663 0.027720377 -0.006156967 -0.013789674 0.006433627 -0.015557548
0.02093171 -0.026377622 -0.10501906 -0.05699355 0.021666517 -0.026483193 -0.05782838 -0.08335676
-0.026367392 0.0026513867 0.029085524 0.017590608 0.0008401387 0.002795774 0.0061971988 0.007087392
0.008677292 -0.009005359 -0.017305024 -0.00039815134 -0.03162274 -0.05528667 -0.07083122 -0.07432094
-0.0002239346 -0.04695816 -0.10478611 -0.016683059 0.01642381 0.019148098 0.01582947 0.025035383
00000000: 3626 06bd 9685 35be 6d42 933a fb3d 2dbd
00000010: 6fe3 17bd cb1b 933c 2c1f 39bd 0fdc 9fbd
00000020: fd19 8fbd e104 863d cc03 273c 53dd 7a3c
00000030: c505 3c3c a32e 4f3d b780 4abd abef 70bd
00000040: f463 bfbc 8332 36bb f6ad e2bc d2be 0bbd
00000050: 3142 06bd 29c2 b7bd 3019 50bd b3aa 093c
00000060: 91f1 27bd 38ac 25bd 0fbb b6bc ce4c 8d3b
00000070: ab20 acbc 08cd b7bc 4953 d1bc f450 dabc
00000080: d3ba 4cbc 8382 313c e606 d1bc 53d9 563b
00000090: f4a6 de3a 2db3 0fbc ae79 cabc eff0 b2bc
000000a0: 1f65 d0bb 00aa 13bc 881b 71bd 0234 abbd
000000b0: 5a5b 953a bed6 81bc 8110 1bbd 6ec3 6cbd
000000c0: 7729 043c bdb1 7fbc 8662 7bbd ba09 47bd
000000d0: 2c07 013b 4b98 cebb a7bf 23bd 0725 0dbd
000000e0: 7c8f e9bc 3aad aeba 53c8 16bd eebd adbb
000000f0: 0ee7 dcba 905c e53a 5e1f 1dbb dfec 64bd
00000100: dca0 91be 4400 fabc 4858 21bd b71a 01bd
00000110: dce2 dfbc 39f7 62bd 2349 04bd 928d 27be
00000120: 39b9 6d3b b606 4dbd c7ee cfbb 131d 54bb
00000130: 4050 8f3c 7a5f 773c abc5 dbbc 1831 8e3c
00000140: 495d 59bb b4e7 9fbc 0b8f b9bc 359b 1dbc
00000150: 49b3 4bbc 5d3e dcbc 39a1 b23c 97d7 f7bb
00000160: 2e88 e3bc a4d0 b3bc 3ced 50bc 6f59 a4ba
00000170: e714 c13c 6bef 10bd 662e 32bd 449e 433c
00000180: ee23 193c aa68 6b3b c419 7bbb 8c87 38bd
00000190: 2132 f63b 1cca 70bc f61a 1fbd 7128 36bd
000001a0: dbe7 303c 306a 6cbd a063 a2bd 8a61 44bd
000001b0: 3011 f4bb cca5 97bc c9a6 d8bb d053 b0bc
000001c0: 37f5 80bc efb6 2dbc c192 4ebb c4b7 dc3c
000001d0: 6acb 453c a8bf d53c 9693 80bc 31e3 d2bc
000001e0: 4c9e dfbc 0743 e93c ca5e 19bc 12d4 d9bc
000001f0: e5ef e03c fbf8 0c3c a8d4 acbc 5f37 90bc
00000200: 82ce cf3c 15d8 e63c 31e9 98bc bc0b eebc
00000210: 5fc1 d63c 588a eabc 1a07 063c ef3a 653c
00000220: 84a6 13bc fa2f 2abc 08bf 1cbc f9c8 4f3c
00000230: 00a0 913c 644d b1bd e69c ca3b a587 e93b
00000240: 7d50 6cbb 5f2b 083d 62c3 29bd b3f2 15bd
00000250: add3 e8ba b52d 47bd 2557 0dbd b2e2 253c
00000260: bc1c a03c 9149 643c 5b8f 88bc 7fae d63c
00000270: 5af3 773c 1212 e1bc 5721 223c 6810 a3bc
00000280: f18f dabc 1600 f23c e0aa 063c 518b 92b9
00000290: 06c3 00bc a004 c93b a40d ddbb bae5 5d3c
000002a0: 76e1 713c 1366 dbbc d5d0 0fbc ae2e 8dbc
000002b0: 060b e33c 1cb9 3cbd 43e7 e23c d5b6 0d3d
000002c0: 9e23 093c 6013 5cbd 6f2e 4bbc b392 e7bc
000002d0: 226a 0fbc 907d a0bc 6fee 1fbd 5ccf ceb9
000002e0: 4549 ed3c b84c 1a3c eefd 703c b4b2 b5bc
000002f0: 1d8b 95bc 0178 ad3d 6b00 eb3b c81a 3ebd
00000300: 1388 673c 9a5d e0bd e9a7 97bc 8c64 bbbc
00000310: c7b2 0f3d eac4 51bd 21d9 6ebd 669e 063b
00000320: 0387 00bd a827 e6ba 2e89 3e3c 08b8 e23c
00000330: ab16 87bc b3e3 883c 96f3 e73c 4e2c c33c
00000340: 4776 4e3c 3967 ea3c d529 583c 635a b33c
00000350: a950 e3bc ce52 eabc c665 743c 53f2 07bc
00000360: 7c76 b7bc 03f0 a4bb 8b66 9c3b d815 e33c
00000370: 62c0 c9bb 16ee 61bc 2dd1 d23b 16e5 7ebc
00000380: fa78 ab3c e215 d8bc 3c14 d7bd 1272 69bd
00000390: fb7d b13c 48f3 d8bc 74dd 6cbd f3b6 aabd
000003a0: 6e00 d8bc e3c2 2d3b c444 ee3c 2e1a 903c
000003b0: c13c 5c3a 4e39 373b df11 cb3b 5a3d e83b
000003c0: 332b 0e3c 378b 13bc 44c3 8dbc f8be d0b9
000003d0: d986 01bd 4674 62bd f50f 91bd 9435 98bd
000003e0: fdcf 6ab9 3357 40bd 1a9a d6bd e9aa 88bc
000003f0: 3a8b 863c 79dc 9c3c ceac 813c 0117 cd3c

bias f4 [128]
-0.051483333 0.03366794 -0.011860455 -0.043129116 -0.021817643 0.0389436 0.0065787975 -0.0063603898
-0.03490189 0.006115271 0.05772259 -0.010765643 0.05145602 -0.08395586 0.015473639 -0.030607672
-0.012769021 -0.018226827 0.034185443 0.0069462545 0.058819793 0.011559717 -0.05304742 -0.07134024
-0.033815846 -0.04959527 -0.056394942 0.015864013 -0.033075586 -0.025817806 0.06831694 0.04276373
-0.045736186 0.038168993 -0.004398957 -0.0576198 0.04130092 -0.016881 0.03141596 -0.004824931
0.06410822 0.029524233 -0.007486369 0.020768106 -0.050276924 -0.046015214 -0.036301542 -0.011320414
0.014528197 0.008263014 0.024136852 -0.024766656 0.02850647 0.04776221 -0.037150998 0.06628372
0.04003202 -0.025962822 0.04401695 0.037396163 -0.023006853 -0.048151363 -0.0102 -0.07032605
0.017936856 0.0028097327 0.009374008 0.03142984 0.055111013 -0.043141697 -0.0687199 0.010333412
0.048214402 0.03093057 0.029681476 -0.031248078 0.048811726 -0.061680626 0.0632582 -0.007811281
0.053012308 0.061931103 0.029533777 0.047370207 -0.023522506 0.013146467 -0.0144486 -0.030306434
-0.0007910897 -0.025903607 -0.0015596685 -0.047716025 0.0103372 0.02372808 0.085723944 -0.014157007
-0.0023350941 0.0025213757 0.050899755 -0.03051698 0.0128551815 -0.05152211 0.017885428 0.015193529
-0.060298286 0.0708372 0.035579327 2.0271631e-05 -0.051463477 -0.03895634 0.014213807 0.019410696
-0.065290876 -0.020283135 -0.011065657 -0.002548702 -0.034328293 -0.06233407 -0.058634583 0.06720011
-0.067445405 -0.023358474 -0.052167013 -0.010892687 0.018692235 0.026461849 0.0390175 -0.0027348916
00000000: 30e0 52bd 65e7 093d 5b52 42bc 28a8 30bd
00000010: eaba b2bc 5383 1f3d f492 d73b d16a d0bb
00000020: 49f5 0ebd 9c62 c83b 866e 6c3d 6162 30bc
00000030: 8cc3 523d 0df1 abbd 2585 7d3c f1bc fabc
00000040: 2835 51bc 6d50 95bc 0906 0c3d 689d e33b
00000050: 06ed 703d f864 3d3c 4048 59bd d51a 92bd
00000060: 7c82 0abd 6924 4bbd 62fe 66bd 3ff5 813c
00000070: 447a 07bd dd7f d3bc c0e9 8b3d 0529 2f3d
00000080: de55 3bbd 1757 1c3d 2025 90bb bd02 6cbd
00000090: 272b 293d 064a 8abc 06ae 003d 741a 9ebb
000000a0: 2c4b 833d cedc f13c 3750 f5bb e021 aa3c
000000b0: 2def 4dbd 737a 3cbd edb0 14bd 4279 39bc
000000c0: ad07 6e3c 9861 073c a6ba c53c 71e3 cabc
000000d0: 6786 e93c 4fa2 433d a52b 18bd c2bf 873d
000000e0: 9ef8 233d fcaf d4bc 1e4b 343d b82c 193d
000000f0: de78 bcbc 5d3a 45bd e71d 27bc 1b07 90bd
00000100: 50f0 923c 7e23 383b 7095 193c 93bc 003d
00000110: 16bc 613d 59b5 30bd 05bd 8cbd 794d 293c
00000120: 777c 453d 1b62 fd3c 9126 f33c f8fb ffbc
00000130: ceee 473d d3a4 7cbd 848d 813d c6f5 ffbb
00000140: 6f23 593d 78ab 7d3d d2f0 f13c 4307 423d
00000150: 45b2 c0bc 4764 573c d2b9 6cbc 3345 f8bc
00000160: 2261 4fba cd33 d4bc ca6d ccba e171 43bd
00000170: 5c5d 293c 6461 c23c 0990 af3d cbf2 67bc
00000180: 6108 19bb aa3d 253b 437c 503d bffe f9bc
00000190: 8a9e 523c d908 53bd 7684 923c 48ee 783c
000001a0: 56fb 76bd 1813 913d a1bb 113d ff0c aa37
000001b0: 5ecb 52bd af90 1fbd 07e1 683c 2e03 9f3c
000001c0: 39b7 85bd d128 a6bc bb4c 35bc 2008 27bb
000001d0: d39b 0cbd 0352 7fbd d12a 70bd 36a0 893d
000001e0: d120 8abd 455a bfbc 14ad 55bd 3e77 32bc
000001f0: 7520 993c 85c6 d83c d0d0 1f3d de3b 33bb

weight f4 [128, 128]
0.00582491 -0.05228282 0.043178253 -0.004445812 -0.055642933 0.086973004 -0.019771775 -0.0449058
-0.0580452 0.09077678 0.03997293 -0.06205308 0.008749088 -0.040332377 -0.05120488 -0.08092834
-0.04439263 0.054631494 0.015585938 -0.03836796 -0.0482788 -0.069330186 -0.08911513 -0.05619437
-0.06482655 0.06798544 0.013451847 -0.05354071 -0.10035083 -0.055726472 0.061051745 -0.0012340195
0.08109114 -0.054069564 0.05768751 -0.033432085 0.04936579 0.017324125 -0.026622916 -0.0641783
0.0823868 -0.042011425 -0.09443556 0.028980587 -0.031226564 -0.003768716 -0.07426373 -0.027368773
-0.060473192 0.09051526 -0.072079204 -0.00666384 0.015067278 0.008779274 -0.042478114 0.052082
-0.040079415 -0.013953653 0.010360555 0.015459957 -0.0053185658 -0.027427454 -0.08599749 -0.020521794
0.003940787 0.062130228 0.030001638 -0.05909506 -0.007042871 -0.08644678 0.017473629 -0.02463574
-0.029762259 0.030444259 -0.024389418 -0.030400503 -0.00049189193 -0.06185092 -0.016196556 -0.008352768
-0.051558983 0.09518904 0.09168366 -0.028773764 -0.073777445 -0.057811763 0.009925287 -0.08266771
-0.0041410336 -0.08655828 0.0026648606 0.02235069 0.0011989666 0.021666449 0.07592575 0.04592694
-0.07093191 -0.03249545 0.04126953 -0.06591405 0.011167065 0.012362809 0.088818945 0.0313282
-0.071997225 -0.021667102 0.07043394 0.03868594 -0.033168394 0.07422644 -0.083454445 -0.032037362
-0.021233741 -0.049737792 0.01575459 -0.0280355 0.07648627 -0.035289865 -0.09102243 -0.07210864
0.05343708 -0.06602772 0.056570936 -0.025677308 -0.028914094 -0.03343554 0.080555685 0.016682116
-0.07307343 -0.0020776466 -0.03000168 -0.047707744 -0.056430742 -0.017191323 0.014293387 0.07995989
-0.048063245 -0.042967312 0.059584145 -0.057561498 -0.02280225 -0.0054571624 -0.052700855 0.005817269
0.033000335 -0.023003658 0.0830676 0.021779671 -0.035659377 0.07860137 -0.036232054 -0.005769346
-0.04610239 0.0041019265 0.047012035 -0.03426549 0.0066484525 0.040670656 0.07440991 -0.018972881
0.018407423 -0.03312299 -0.08224646 0.06223044 0.020426095 0.043638244 0.041472115 0.03042832
0.07421316 -0.034733783 -0.03708127 0.0186853 -0.06172124 -0.01949226 -0.06081669 -0.06345033
-0.006584331 0.0104068555 -0.0056223087 -0.03176241 0.06131126 -0.012237048 -0.08981296 -0.04176895
-0.03948578 -0.06077117 -0.046629626 0.033432476 -0.069249436 0.0031529688 0.0027261553 -0.016163023
0.004987579 0.058578998 0.045118228 0.04408543 0.010835563 -0.048791986 0.010487442 -0.03379135
0.0071403137 -0.03985934 0.008501425 -0.028578563 0.038993556 -0.068362854 0.06776782 2.5967051e-06
-0.050323423 0.027227486 0.03664904 0.0066001867 -0.004824123 0.07397941 -0.090165295 -0.04716562
0.022249075 -0.09322945 -0.036447026 -0.010128681 0.08585409 0.0031692798 -0.028300516 0.043903943
-0.026513873 -0.082756735 0.0011034743 0.012420113 -0.0067329174 0.07718777 0.053771634 0.060878288
-0.031432863 0.07074507 -0.038855024 0.052362103 -0.019095447 -0.011497752 -0.040520057 0.11223307
-0.10938556 -0.041322403 0.0019494419 -0.062743686 0.08593423 -0.051156625 0.069917694 0.051586915
-0.06443316 -0.00891538 0.068562604 0.07405539 0.04033983 -0.003388124 -0.0047339187 -0.080963194
00000000: e3de be3b 8326 56bd aedb 303d 2dae 91bb
00000010: d8e9 63bd e71e b23d 6bf8 a1bc 25ef 37bd
00000020: cec0 6dbd 2de9 b93d a8ba 233d 5f2b 7ebd
00000030: 5658 0f3c 9033 25bd 35bc 51bd c2bd a5bd
00000040: 0cd5 35bd 46c5 5f3d 295c 7f3c b927 1dbd
00000050: febf 45bd fcfc 8dbd fe81 b6bd 112c 66bd
00000060: c8c3 84bd f33b 8b3d 2365 5c3c 814d 5bbd
00000070: bc84 cdbd 7141 64bd 6511 7a3d d3be a1ba
00000080: 1d13 a63d 0c78 5dbd bd49 6c3d 15f0 08bd
00000090: c833 4a3d 53eb 8d3c 4d18 dabc ea6f 83bd
000000a0: 69ba a83d 2c14 2cbd 6e67 c1bd b268 ed3c
000000b0: dace ffbc 90fc 76bb 9517 98bd 7a34 e0bc
000000c0: bdb2 77bd 1160 b93d 439e 93bd 575c dabb
000000d0: bfdc 763c f2d6 0f3c 88fd 2dbd ef53 553d
000000e0: 502a 24bd dd9d 64bc 51bf 293c c24b 7d3c
000000f0: 5d47 aebb 8aaf e0bc 741f b0bd 521d a8bc
00000100: b821 813b 447c 7e3d ffc5 f53c a90d 72bd
00000110: e2c7 e6bb 020b b1bd db24 8f3c e4d0 c9bc
00000120: fbcf f3bc 3d66 f93c 51cc c7bc 7a0a f9bc
00000130: 4ff2 00ba 6457 7dbd a4ae 84bc 0cda 08bc
00000140: 832f 53bd 79f2 c23d a5c4 bb3d f5b6 ebbc
00000150: a118 97bd 07cc 6cbd ac9d 223c b04d a9bd
00000160: 82b1 87bb 7845 b1bd f1a4 2e3b cb18 b73c
00000170: a526 9d3a d67d b13c f67e 9b3d e31d 3c3d
00000180: c044 91bd f319 05bd 3d0a 293d f2fd 86bd
00000190: 11f6 363c 618d 4a3c b5e6 b53d 0052 003d
000001a0: 4873 93bd 357f b1bc ab3f 903d 2675 1e3d
000001b0: 95db 07bd 0804 983d 2aea aabd 9c39 03bd
000001c0: 62f2 adbc dbb9 4bbd c50f 813c b4aa e5bc
000001d0: d5a4 9c3d 1b8c 10bd f869 babd b2ad 93bd
000001e0: d7e0 5a3d 8b39 87bd edb6 673d 3859 d2bc
000001f0: 40dd ecbc b4f3 08bd 61fa a43d efa8 883c
00000200: 86a7 95bd 2029 08bb 15c6 f5bc 3269 43bd
00000210: ec23 67bd d1d4 8cbc cf2e 6a3c 03c2 a33d
00000220: f7dd 44bd 7efe 2fbd 810e 743d 9bc5 6bbd
00000230: c9cb babc ffd1 b2bb dadc 57bd ca9e be3b
00000240: 5c2b 073d 2b72 bcbc 591f aa3d 486b b23c
00000250: 910f 12bd c1f9 a03d 1068 14bd c80c bdbb
00000260: dcd5 3cbd 7469 863b b18f 403d f859 0cbd
00000270: 43db d93b 4696 263d 3964 983d 046d 9bbc
00000280: 2acb 963c f9ab 07bd d570 a8bd 59e5 7e3d
00000290: a054 a73c 04be 323d aade 293d d044 f93c
000002a0: 12fd 973d 0345 0ebd 88e2 17bd ea11 993c
000002b0: 69cf 7cbd 3bae 9fbc ec1a 79bd 3ff2 81bd
000002c0: 5fc1 d7bb 8481 2a3c 583b b8bb 4d19 02bd
000002d0: 8421 7b3d e67d 48bc dbef b7bd eb15 2bbd
000002e0: d7bb 21bd 31eb 78bd b5fe 3ebd 7ef0 083d
000002f0: a6d2 8dbd 0aa2 4e3b 4ca9 323b 5168 84bc
00000300: d86e a33b 88f0 6f3d e4cd 383d ed92 343d
00000310: a587 313c 1bda 47bd 85d3 2b3c cc68 0abd
00000320: 4bf9 e93b 8c43 23bd 9049 0b3c 971d eabc
00000330: b5b7 1f3d d301 8cbd dbc9 8a3d 0e43 2e36
00000340: ef1f 4ebd 2d0c df3c 4e1d 163d 6146 d83b
00000350: ad13 9ebb 8482 973d 95a8 b8bd bd30 41bd
00000360: b143 b63c 15ef bebd 7a49 15bd c4f2 25bc
00000370: 45d4 af3d b1b3 4f3b 7cd6 e7bc 9fd4 333d
00000380: 9f33 d9bc 5d7c a9bd 74a2 903a bb7d 4b3c
00000390: ce9f dcbb 9f14 9e3d a53f 5c3d 835b 793d
000003a0: bfbf 00bd cbe2 903d 7226 1fbd a579 563d
000003b0: 0e6e 9cbc 1161 3cbc 5cf8 25bd 74da e53d
000003c0: 8905 e0bd ae41 29bd 6a84 ff3a c37f 80bd
000003d0: 49fe af3d 9c89 51bd 0231 8f3d cd4c 533d
000003e0: 88f5 83bd d011 12bc 8d6a 8c3d 5aaa 973d
000003f0: 613b 253d 4a0b 5ebb fd1e 9bbb 08d0 a5bd

bias f4 [128]
0.07046991 -0.06461206 0.058073413 -0.02439447 0.102137774 -0.058851507 -0.03135037 0.09578742
0.046349015 0.07951425 -0.06041056 0.06537409 0.073096745 -0.018804519 0.087912716 0.05917875
0.018359313 0.1281263 0.080044694 -0.07465916 -0.084401146 -0.0134004755 -0.011507339 -0.06036684
0.045185648 -0.027050529 -0.045458946 -0.011163016 -0.058823694 0.12903027 -0.083273776 -0.08419835
-0.024954401 -0.04392704 -0.050151158 0.08800395 0.026623955 0.032265984 -0.035553046 -0.013122712
0.08258874 0.023553954 -0.03473268 0.09686111 -0.058059085 -0.004767188 0.10531156 0.072913595
-0.06713268 0.026533417 0.09870055 0.006911022 0.05372714 0.024192624 0.06742916 -0.053659774
-0.074285515 0.03135831 -0.061762523 -0.008573701 0.08470052 0.09998197 0.052360255 0.11677214
-0.04058773 -0.049795877 -0.08751577 0.023691848 -0.082276985 -0.012377056 0.008706658 -0.020319264
0.045372102 -0.06118022 0.118777394 0.1106735 0.06513219 0.06640556 0.19866888 0.05191581
-0.08050917 0.012968227 0.11456012 -0.03015183 -0.029720109 -0.076917365 0.06549947 0.07877099
-0.03429591 0.10569383 0.0047773975 0.06007518 -0.011900936 0.22263351 0.049793236 -0.039726175
0.009961732 0.09621618 -0.087428704 0.07157249 -0.08507038 -0.010333524 -0.034408305 -0.024271062
0.09986292 0.043580256 -0.014865711 0.021421496 -0.033867184 0.097316206 -0.053021353 0.059512466
0.09950532 0.06734941 0.094268076 -0.0136013655 0.039636638 0.10654065 0.011434171 0.0050983867
0.087008104 0.021668863 0.09915962 -0.026456475 -0.015379447 -0.050145265 -0.043511298 -0.0908232
00000000: 8752 903d 5453 84bd 63de 6d3d e9d6 c7bc
00000010: 9c2d d13d 470e 71bd 3f69 00bd 322c c43d
00000020: 77d8 3d3d 5ed8 a23d 1071 77bd dae2 853d
00000030: bfb3 953d ef0b 9abc 950b b43d 6b65 723d
00000040: 4566 963c 8a33 033e 79ee a33d e7e6 98bd
00000050: 82da acbd ab8d 5bbc 4789 3cbc 3843 77bd
00000060: 9614 393d 1299 ddbc 2933 3abd 15e5 36bc
00000070: 1df1 70bd 8320 043e 718b aabd 2f70 acbd
00000080: 2c6d ccbc d7ec 33bd 4d6b 4dbd 6a3b b43d
00000090: 7b1a da3c 5629 043d 12a0 11bd a500 57bc
000000a0: 4924 a93d 39f4 c03c db43 0ebd 1e5f c63d
000000b0: 5dcf 6dbd 1236 9cbb 96ad d73d b953 953d
000000c0: dc7c 89bd 9c5c d93c 8423 ca3d db75 e23b
000000d0: fd10 5c3d 9c2f c63c 4d18 8a3d 5aca 5bbd
000000e0: 0123 98bd 9271 003d b3fa 7cbd b578 0cbc
000000f0: 7777 ad3d 59c3 cc3d b577 563d 3b26 ef3d
00000100: 523f 26bd c3f6 4bbd 783b b3bd 6815 c23c
00000110: d680 a8bd 23c9 4abc 5fa6 0e3c 9674 a6bc
00000120: 19d8 393d 1c98 7abd 9041 f33d caa8 e23d
00000130: 0764 853d a3ff 873d db6f 4b3e aca5 543d
00000140: fee1 a4bd b078 543c 7f9e ea3d f800 f7bc
00000150: 9677 f3bc da86 9dbd 9624 863d af52 a13d
00000160: de79 0cbd 0276 d83d b78b 9c3b 6411 763d
00000170: 25fc 42bc 0afa 633e fef3 4b3d eab7 22bd
00000180: 8836 233c fd0c c53d d20d b3bd 9994 923d
00000190: 6139 aebd f14d 29bc b9ef 0cbd 1bd4 c6bc
000001a0: ee84 cc3d 3681 323d 508f 73bc 227c af3c
000001b0: 51b8 0abd b84d c73d eb2c 59bd 58c3 733d
000001c0: 72c9 cb3d 7dee 893d 9f0f c13d 43d8 5ebc
000001d0: 075a 223d fc31 da3d 6456 3b3c 5e10 a73b
000001e0: 4e31 b23d e682 b13c 3314 cb3d 40bb d8bc
000001f0: 13fa 7bbc 1f65 4dbd e738 32bd 8401 babd

weight f4 [128, 128]
-0.01507765 -0.0066179116 0.04279252 -0.038263783 -0.026112257 0.003077108 -0.023601178 0.048486914
0.09555901 -0.0070801987 0.047270294 0.054369286 -0.043099068 -0.083876334 -0.023144519 -0.040731855
0.08233484 0.04622479 0.055761933 0.017301934 -0.016983798 0.09193686 -0.008329116 0.004890356
0.082731225 0.053881504 0.06906865 -0.04572121 0.007036041 0.050894175 0.005330246 0.017766176
0.063004516 -0.047755435 -0.03432947 0.0046188375 -0.010329233 -0.061019465 0.04924291 -0.058791723
0.0012053532 -0.030699056 0.04184817 0.03478319 0.07351337 0.06418299 0.052240968 0.045046702
0.06806205 -0.004342628 0.08140806 0.087720245 -0.052992437 -0.062463343 -0.060943022 0.06397594
0.068408325 0.08091983 0.015320055 -0.041992024 -0.028580671 0.09527802 0.020519545 0.050505526
-0.001886225 -0.08099094 0.052867014 0.003427106 -0.016081182 0.03194626 0.009634232 0.037847683
-0.05231382 -0.04543043 -0.058937408 -0.02963881 0.057998523 0.0934344 0.07054453 -0.059288736
0.041601647 -0.011500614 0.09727848 0.075712316 -0.0062050777 -0.013151384 0.025574684 0.007227292
-0.02972072 -0.0007183369 0.087116785 -0.034226097 -0.017984282 0.1645005 -0.05965 0.09146396
-0.01684693 0.08975457 -0.07306502 -0.05935672 0.092037 0.061860222 -0.06273257 0.052749947
-0.07773332 0.02075032 0.03423439 -0.052007396 -0.06241293 -0.054020487 0.06300119 0.08023503
0.09125293 0.012911641 0.08396917 0.005502456 0.00378335 0.023619557 -0.079578154 0.08210688
0.011775245 0.053858887 0.024505135 -0.02820711 -0.059780214 0.055045795 0.06454977 -0.07016061
0.016600825 0.07530985 0.04201692 0.03219217 -0.06839267 -0.057654493 0.01896998 0.042108554
0.024862153 -0.025601069 0.023120517 -0.03280136 0.08924214 0.06926643 0.02795853 -0.020083496
0.0766243 -0.051628076 -0.03355054 -0.045627743 0.051216725 -0.012318496 0.05106345 -0.07085239
-0.041120138 0.096884355 0.07975781 0.08027774 -0.04812287 -0.028141987 0.039827175 -0.07380381
0.052932896 0.07235933 0.039399248 0.053579926 -0.06328416 0.06836117 -0.09227462 0.09371385
-0.08178669 -0.019054404 -0.019705689 0.041485667 -0.06733464 -0.009623272 -0.00282181 -0.04621237
0.08630271 -0.05004928 0.04761693 0.0027495355 0.026169445 -0.06391765 0.040450104 0.08012773
-0.028051805 0.06730765 0.044930764 -0.055403862 -0.016228555 -0.018056883 0.087378174 -0.0324186
0.05430105 -0.06693722 0.03717926 -0.06855809 0.0018692901 0.08228826 -0.009181951 0.08771007
0.058446072 0.04393432 -0.06418799 0.042106856 -0.020513264 0.04913288 0.11374136 -0.064719565
0.06293259 -0.0495023 0.04545823 -0.01714734 -0.04966159 0.01732644 0.04747744 0.04319985
0.0047597643 0.0718747 0.053196292 0.027851054 0.0573844 0.31289333 0.07296102 -0.06011272
0.023275705 0.040290937 0.030011922 -0.012342476 -0.08834841 -0.015652908 -0.06821814 -0.035597514
-0.005608095 0.050098784 0.07730265 0.06241779 -0.055261385 0.034895137 -0.08579115 -0.03817541
-0.0489383 -0.06034907 0.042106204 0.030022452 0.016255444 0.044915214 0.01847843 0.022363955
-0.028399331 0.09348982 -0.071426295 0.05175131 -0.040808994 0.058803134 0.046730075 -0.0028231319
00000000: 3f08 77bc 11db d8bb 3647 2f3d 7cba 1cbd
00000010: 5fe9 d5bc 4ea9 493b 4257 c1bc 379a 463d
00000020: 71b4 c33d 0301 e8bb 7f9e 413d 54b2 5e3d
00000030: a688 30bd 5bc7 abbd 9399 bdbc 72d6 26bd
00000040: 2b9f a83d 3556 3d3d a066 643d c9bc 8d3c
00000050: 9b21 8bbc 6449 bc3d d876 08bc 483f a03b
00000060: fd6e a93d dab2 5c3d dd73 8d3d 2a46 3bbd
00000070: 978e e63b 6976 503d 58a9 ae3b 5f8a 913c
00000080: 8308 813d 349b 43bd 0f9d 0cbd 9e59 973b
00000090: f13b 29bc 8cef 79bd efb2 493d 97cf 70bd
000000a0: f1fc 9d3a 967c fbbc fd68 2b3d d178 0e3d
000000b0: 2d8e 963d 5f72 833d a0fa 553d e482 383d
000000c0: 1e64 8b3d 9b4c 8ebb 45b9 a63d aca6 b33d
000000d0: 990e 59bd 90d9 7fbd 649f 79bd d105 833d
000000e0: aa19 8c3d 4cb9 a53d f800 7b3c d4ff 2bbd
000000f0: 0322 eabc 1f21 c33d 9b18 a83c e2de 4e3d
00000100: 353b f7ba 94de a5bd 158b 583d 4c99 603b
00000110: afbc 83bc 15da 023d e6d8 1d3c 2c06 1b3d
00000120: 0447 56bd 4215 3abd 5a68 71bd 17cd f2bc
00000130: dc8f 6d3d 895a bf3d a779 903d bfd8 72bd
00000140: 7d66 2a3d 126d 3cbc f139 c73d 0f0f 9b3d
00000150: f753 cbbb e778 57bc 0082 d13c ebd2 ec3b
00000160: de78 f3bc c64e 3cba 496a b23d aa30 0cbd
00000170: c653 93bc d272 283e 8f53 74bd 7551 bb3d
00000180: 9302 8abc 3ed1 b73d 1da3 95bd 0820 73bd
00000190: e57d bc3d 2561 7d3d ef79 80bd 5410 583d
000001a0: a632 9fbd 93fc a93c 5c39 0c3d b505 55bd
000001b0: b3a4 7fbd 9644 5dbd c506 813d 4352 a43d
000001c0: d1e2 ba3d 598b 533c 07f8 ab3d f24d b43b
000001d0: 15f2 773b cd7d c13c dff9 a2bd a727 a83d
000001e0: f5ec 403c 239b 5c3d febe c83c 9912 e7bc
000001f0: 19dc 74bd b377 613d ab32 843d 5eb0 8fbd
00000200: 74fe 873c 0d3c 9a3d ef19 2c3d f0db 033d
00000210: 7511 8cbd 1e27 6cbd ee66 9b3c 057a 2c3d
00000220: b7ab cb3c 55b9 d1bc 3d67 bd3c b85a 06bd
00000230: 95c4 b63d 8fdb 8d3d 4909 e53c 2586 a4bc
00000240: 33ed 9c3d f677 53bd 4b6c 09bd 28e4 3abd
00000250: a1c8 513d 84d3 49bc e827 513d 0f1b 91bd
00000260: 976d 28bd 4e6b c63d 1058 a33d a868 a43d
00000270: 7d1c 45bd 068a e6bc d221 233d 7426 97bd
00000280: 2ad0 583d 2131 943d 1b61 213d a076 5b3d
00000290: 209b 81bd f100 8c3d 7afa bcbd 0ced bf3d
000002a0: c87f a7bd fb17 9cbc d36d a1bc e0ec 293d
000002b0: bee6 89bd eeaa 1dbc 1eee 38bb 2f49 3dbd
000002c0: 7abf b03d 7900 4dbd f809 433d 8d31 343b
000002d0: 4e61 d63c 42e7 82bd 02af 253d 021a a43d
000002e0: e6cc e5bc 98d8 893d 5209 383d 29ef 62bd
000002f0: bff1 84bc 07ec 93bc 54f3 b23d 5ec9 04bd
00000300: c76a 5e3d 6216 89bd 4849 183d 2f68 8cbd
00000310: f802 f53a bf86 a83d e56f 16bc 56a1 b33d
00000320: 2665 6f3d 79f4 333d fe74 83bd 3d78 2c3d
00000330: 6f0b a8bc 8f3f 493d 3bf1 e83d b18b 84bd
00000340: cde2 803d ecc2 4abd 6932 3a3d 9478 8cbc
00000350: f469 4bbd 2ef0 8d3c b477 423d 53f2 303d
00000360: ccf7 9b3b 0b33 933d 5be4 593d e527 e43c
00000370: e80b 6b3d 8e33 a03e 966c 953d c138 76bd
00000380: b1ac be3c 1c08 253d 90db f53c 1938 4abc
00000390: 03f0 b4bd 873a 80bc f4b5 8bbd b3ce 11bd
000003a0: 1cc4 b7bb 6234 4d3d da50 9e3d cca9 7f3d
000003b0: c359 62bd 34ee 0e3d 45b3 afbd d25d 1cbd
000003c0: 8773 48bd 9630 77bd 8e77 2c3d a5f1 f53c
000003d0: 232a 853c 04f9 373d 1460 973c 9d34 b73c
000003e0: b7a5 e8bc 9777 bf3d f347 92bd 2ef9 533d
000003f0: 5527 27bd 8edb 703d 0968 3f3d 4b04 39bb

bias f4 [128]
0.0006508089 -0.010179716 -0.022144157 0.02068595 0.050068162 -0.0022952135 -0.06484529 -0.05027716
0.044059727 0.015215953 0.032088637 0.07169776 -0.049889814 0.105090275 -0.063531116 0.1087768
-0.037424166 0.015941348 0.058585696 -0.043546256 0.0680594 0.08395639 -0.041228194 -0.056854717
-0.03409379 0.035069507 -0.052063603 -0.012857826 -0.074060015 0.009419723 0.055594448 0.10630516
-0.09307237 -0.060199037 -0.06258916 0.103388265 0.101299874 0.07317386 0.05791112 -0.08679695
-0.007240224 0.07081812 -0.042598207 0.07854102 -0.016251635 -0.02743138 0.053382378 0.03863694
0.07989427 -0.062746495 0.044530403 -0.044874895 -0.056623287 -0.030709911 0.03011747 0.05247476
-0.032957304 -0.0768961 -0.034891084 -0.008162332 -0.014661134 -0.0045667966 -0.08597466 0.01574682
0.029630579 -0.062357258 0.0028593424 0.027255476 0.09290824 -0.039589845 -0.025008399 -0.052020837
-0.025190318 -0.034162194 0.031343877 0.036713175 -0.031237306 -0.07450156 -0.030719673 0.06811012
0.032237485 0.07174268 -0.040697433 0.06885663 0.020034472 0.029188002 0.05763648 0.042113163
0.036804907 0.01953459 0.07112607 -0.016522594 -0.057079393 0.074217334 -0.097059704 -0.038642496
-0.0036410466 -0.056367025 0.055962093 -0.02709063 0.045589503 -0.09299922 0.058115736 0.0051041963
0.0838897 -0.030736206 0.025344871 -0.006927505 0.0035210354 -0.07884232 -0.064207755 0.028194254
0.00817497 0.031298056 0.035497542 -0.061215915 0.091080554 0.062694855 -0.04104671 -0.062567145
0.057224926 -0.06753001 -0.04457025 -0.035170402 0.043001126 0.076936625 0.09970023 0.0025824916
00000000: 0c9b 2a3a d3c8 26bc aa67 b5bc 9575 a93c
00000010: 4614 4d3d 4b6b 16bb 9bcd 84bd 6cef 4dbd
00000020: f977 343d 554c 793c 606f 033d 46d6 923d
00000030: 4359 4cbd 9239 d73d 9a1c 82bd 5fc6 de3d
00000040: 154a 19bd 6e97 823c 8ef7 6f3d 8f5d 32bd
00000050: ba62 8b3d 54f1 ab3d e5de 28bd 7ee0 68bd
00000060: eea5 0bbd 0ba5 0f3d a540 55bd a2a9 52bc
00000070: c7ac 97bd 2f55 1a3c 01b7 633d 85b6 d93d
00000080: ba9c bebd 4493 76bd bf2e 80bd 3abd d33d
00000090: 4f76 cf3d 2ddc 953d 3634 6d3d 99c2 b1bd
000000a0: 673f edbb 1709 913d 757b 2ebd 1dda a03d
000000b0: 2622 85bc c6b7 e0bc 7ba7 5a3d c541 1e3d
000000c0: 9b9f a33d 3c81 80bd 8365 363d bdce 37bd
000000d0: d2ed 67bd 5a93 fbbc eab8 f63c c6ef 563d
000000e0: 3dfe 06bd b47b 9dbd f4e9 0ebd 4dbb 05bc
000000f0: 4135 70bc 11a5 95bb 7c13 b0bd 7aff 803c
00000100: d4bb f23c 536a 7fbd ce63 3b3b e046 df3c
00000110: ad46 be3d f628 22bd 6ade ccbc cd13 55bd
00000120: ed5b cebc a8ed 0bbd 7062 003d 8e60 163d
00000130: 61e5 ffbc 4694 98bd d3a7 fbbc 527d 8b3d
00000140: 740b 043d d4ed 923d 5ab2 26bd b404 8d3d
00000150: 551f a43c ad1b ef3c 3b14 6c3d da7e 2c3d
00000160: bec0 163d 0107 a03c 8caa 913d 645a 87bc
00000170: 15cc 69bd 42ff 973d 3dc7 c6bd 9847 1ebd
00000180: a09e 6ebb 1ce1 66bd 8238 653d 2bed ddbc
00000190: 0fbc 3a3d 6076 bebd c40a 6e3d 1a41 a73b
000001a0: 5dce ab3d 7fca fbbc 0ca0 cf3c 2000 e3bb
000001b0: 2cc1 663b 1578 a1bd 5b7f 83bd a3f7 e63c
000001c0: 4ff0 053c 6432 003d df65 113d 8abd 7abd
000001d0: 7188 ba3d 2966 803d 9820 28bd 3423 80bd
000001e0: af64 6a3d 2d4d 8abd 4b8f 36bd d70e 10bd
000001f0: f321 303d f390 9d3d a22f cc3d 053f 293b

weight f4 [128, 128]
0.04912254 0.028014101 0.013758085 0.00581138 -0.0006513908 -0.07277178 -0.05993428 -0.073231444
0.075527206 0.06346993 0.04055192 -0.02639792 -0.011105336 -0.05422127 0.0109407175 -0.006531271
0.06248226 -0.052061442 -0.032433525 0.024755852 0.04089147 -0.10512477 0.06059464 -0.0859951
0.07913588 -0.025661783 -0.03947633 0.014483257 -0.090559565 -0.031312034 0.02771774 0.015432015
-0.0033181887 -0.0046482915 0.00347577 0.048926357 -0.07878881 0.01507021 -0.07627151 0.06677193
-0.0018186547 0.052312337 0.061797373 -0.030764677 -0.0016039448 -0.02199403 -0.040312767 -0.0046861637
-0.085292935 0.06366542 -0.078460336 -0.05571532 -0.0641618 -0.08218621 -0.0909671 0.019448966
-0.024972247 -0.028062582 0.015100549 -0.031339526 -0.065949135 -0.051776722 -0.089715935 0.01562591
-0.036327854 -0.0810455 0.059853297 -0.011240241 0.052988768 -0.05402864 -0.03829788 0.041754015
0.039438985 -0.01734728 -0.0072962516 -0.028080551 0.0030027854 -0.03470077 -0.03969223 0.0536811
-0.059888665 -0.092455946 -0.0738588 -0.084250405 -0.07671367 0.06503329 0.0057815197 -0.090215854
0.004719991 0.0007226108 0.066311896 0.04174781 0.058128808 -0.07764729 -0.05703716 0.03977744
-0.07864418 -0.020640153 -0.03247175 0.033991452 -0.07898496 -0.023763895 -0.031737715 0.03614108
0.03197124 -0.019807417 -0.09936995 -0.05503773 0.02455865 -0.049616437 -0.037269656 0.058661405
0.0047882334 0.019598212 0.034464695 -0.0463835 -0.008144102 -0.017986521 0.025938224 0.07930414
0.019259494 -0.023188105 0.054234535 -0.056192663 -0.03890666 -0.079783894 -0.0072090323 -0.039108045
0.092467256 0.083356425 -0.036966838 -0.0033343046 0.09166889 -0.0153582515 0.057994097 0.060055792
0.049267877 -0.06703652 0.05579996 0.0042175176 0.05463475 0.095605634 -0.053364743 0.07842696
0.01870594 -0.029219043 0.0065634986 0.08988584 0.06676628 0.09432642 -0.033742566 -0.007729511
-0.054704312 -0.07357801 0.056289844 -0.04798783 0.05221694 -0.0246924 0.050390493 -0.045022074
0.027654521 0.040697165 0.022888267 0.06586145 -0.07474007 0.06816343 -0.019620595 0.06776096
0.076270774 0.046041545 0.03336391 0.048860192 0.009821072 0.035592068 0.037496187 -0.057111688
0.07455176 -0.08154428 0.022715421 -0.070146 0.05243096 0.06172504 -0.050565545 -0.008868453
-0.06561625 -0.057987824 0.035724886 0.029557228 0.056925986 -0.07124838 0.049908806 0.056124616
0.042548675 -0.05726078 0.09534073 0.053429585 0.09358224 -0.05224254 0.024999343 0.080921866
0.012487426 -0.005254174 -0.06240408 0.05199837 -0.030995209 0.038440302 0.041705206 0.031697016
0.023256848 0.052026138 0.024426933 -0.056314986 -0.053992845 0.014352663 0.11618015 0.07372883
0.005297482 -0.007584028 0.03397943 0.056977693 -0.02772917 0.045665953 -0.00010493787 0.029105214
-0.08084207 -0.030948883 -0.030097455 0.02480365 -0.064115286 -0.06736715 -0.045400705 -0.076711275
0.09001806 -0.03169075 -0.041629273 -0.0630189 0.0034331833 -0.058551688 -0.040029086 0.05376956
0.04757662 0.03470431 0.03313743 -0.01961527 0.048443303 -0.011427734 0.025916511 -0.062741034
0.07089901 -0.017958932 0.013288407 -0.058920275 -0.074866965 0.040172536 0.08513315 0.049690284
00000000: b734 493d d47d e53c 9769 613c 646d be3b
00000010: 19c2 2aba 5f09 95bd a67d 75bd 5efa 95bd
00000020: 02ae 9a3d 86fc 813d c519 263d 7340 d8bc
00000030: 28f3 35bc 1f17 5ebd b240 333c 4604 d6bb
00000040: 66ed 7f3d 613e 55bd 04d9 04bd c9cc ca3c
00000050: d07d 273d a84b d7bd 1632 783d 331e b0bd
00000060: fe11 a23d a938 d2bc efb1 21bd 2f4b 6d3c
00000070: 4b77 b9bd 0c41 00bd 5010 e33c 90d6 7c3c
00000080: f875 59bb b250 98bb bec9 633b 0167 483d
00000090: 075c a1bd 0be9 763c 3d34 9cbd b9bf 883d
000000a0: ed5f eeba 7645 563d 3e1f 7d3d 3406 fcbc
000000b0: 753b d2ba d32c b4bc 001f 25bd 648e 99bb
000000c0: 10ae aebd 0463 823d d0af a0bd bf35 64bd
000000d0: 4367 83bd 3e51 a8bd f54c babd 7053 9f3c
000000e0: 9992 ccbc 80e3 e5bc 4b68 773c e05d 00bd
000000f0: 5710 87bd d413 54bd fdbc b7bd e901 803c
00000100: 84cc 14bd 2ffb a5bd bb28 753d fd28 38bc
00000110: c00a 593d 234d 5dbd 3dde 1cbd 4206 2b3d
00000120: c68a 213d e21b 8ebc 6515 efbb 2f09 e6bc
00000130: 61ca 443b 6522 0ebd 5294 22bd b7e0 5b3d
00000140: d14d 75bd 8b59 bdbd 4843 97bd 7a8b acbd
00000150: 0e1c 9dbd 2c30 853d e772 bd3b 17c3 b8bd
00000160: 27aa 9a3b 976d 3d3a 88ce 873d c0ff 2a3d
00000170: 7918 6e3d 8b05 9fbd cc9f 69bd abed 223d
00000180: 3310 a1bd 8a15 a9bc 1901 05bd 9f3a 0b3d
00000190: dec2 a1bd 80ac c2bc 68ff 01bd ab08 143d
000001a0: 46f4 023d 2a43 a2bc 7982 cbbd 3e6f 61bd
000001b0: 392f c93c 9b3a 4bbd 11a8 18bd f146 703d
000001c0: 9de6 9c3b 6e8c a03c da2a 0d3d a0fc 3dbd
000001d0: d76e 05bc 7858 93bc 667c d43c 356a a23d
000001e0: 16c6 9d3c fbf4 bdbc 0825 5e3d 472a 66bd
000001f0: 975c 1fbd bd65 a3bd bf39 ecbb c22f 20bd
00000200: 795f bd3d c6b6 aa3d 8a6a 17bd 5984 5abb
00000210: e6bc bb3d 2da1 7bbc 388b 6d3d 10fd 753d
00000220: 1dcd 493d 714a 89bd 808e 643d 1a33 8a3b
00000230: b0c8 5f3d e3cc c33d fd94 5abd 509e a03d
00000240: 333d 993c c65c efbc 9e12 d73b 1116 b83d
00000250: c2bc 883d 362e c13d a535 0abd d647 fdbb
00000260: a111 60bd 11b0 96bd 2e90 663d e38e 44bd
00000270: 6ee1 553d b747 cabc 4366 4e3d 1169 38bd
00000280: bc8b e23c 12b2 263d 2d80 bb3c 5ee2 863d
00000290: 5211 99bd 4599 8b3d 5fbb a0bc 42c6 8a3d
000002a0: da33 9c3d 0f96 3c3d 98a8 083d a021 483d
000002b0: 90e8 203c fdc8 113d 9a95 193d f2ed 69bd
000002c0: 98ae 983d b000 a7bd b115 ba3c b5a8 8fbd
000002d0: d9c1 563d 65d3 7c3d d11d 4fbd fd4c 11bc
000002e0: d061 86bd a484 6dbd 4254 123d 0022 f23c
000002f0: 392b 693d acea 91bd 2d6d 4c3d ede2 653d
00000300: 8547 2e3d 488a 6abd 0042 c33d fbd8 5a3d
00000310: 0ca8 bf3d 46fc 55bd 6ccb cc3c 5dba a53d
00000320: 1098 4c3c 352b acbb 6c9b 7fbd 3efc 543d
00000330: aae9 fdbc 9473 1d3d 14d3 2a3d bbd4 013d
00000340: 2585 be3c 5c19 553d fe1a c83c 8baa 66bd
00000350: 9a27 5dbd 6f27 6b3c dcef ed3d 24ff 963d
00000360: 8096 ad3b 7083 f8bb 042e 0b3d 7161 693d
00000370: 4928 e3bc 390c 3b3d 1712 dcb8 0f6e ee3c
00000380: 8790 a5bd 8388 fdbc f08e f6bc 0631 cb3c
00000390: e04e 83bd caf7 89bd 17f6 39bd cd1a 9dbd
000003a0: 635b b83d 29ce 01bd 7583 2abd 0e10 81bd
000003b0: 42ff 603b e5d3 6fbd 8af5 23bd 783d 5c3d
000003c0: b4df 423d 1b26 0e3d 1dbb 073d 34b0 a0bc
000003d0: 7c6c 463d 643b 3bbc dd4e d43c 5f7e 80bd
000003e0: 8033 913d 9c1e 93bc 9eb7 593c 6356 71bd
000003f0: da53 99bd f58b 243d 4a5a ae3d 0a88 4b3d

bias f4 [128]
0.047291845 0.0030802423 0.046781715 0.01754312 -0.07575247 -0.015634457 -0.060736183 -0.08513637
0.019452183 -0.05060539 -0.028173015 -0.09338586 -0.054326266 -0.048301537 -0.08387729 -0.0446775
0.010295339 -0.05529411 0.016375845 0.06445351 0.072196335 -0.051923975 -0.014351578 0.05172068
-0.07065171 0.06713964 0.062293656 -0.053183984 -0.066980906 -0.051601004 -0.054969158 -0.06701571
-0.053885717 -0.054038595 -0.05127015 -0.06358604 0.10833501 -0.14997382 0.0619077 -0.025984557
0.024829188 -0.047979917 0.05167871 0.096660756 0.022816177 -0.015629193 -0.02015564 0.08810784
-0.06223055 0.0058211717 -0.0009780952 -0.053876072 0.05757906 -0.0062454487 -0.0055780504 0.040153135
-0.06853273 0.10869832 0.04127898 0.007840173 -0.0450799 -0.032759722 0.096347734 -0.048652593
0.028887607 0.056499526 0.029802177 -0.009176098 0.065039635 -0.07969972 0.056285106 -0.047229566
0.06896258 -0.005195757 -0.06391262 0.055172063 -0.029449945 0.01978154 -0.01883155 -0.06245522
0.006632635 0.053841826 0.05985663 -0.020343978 0.045831688 -0.051026035 0.082445405 -0.06113655
0.09007779 0.009665544 0.005882587 0.048193634 0.028848406 0.054588504 -0.100515895 0.025010237
-0.00987438 0.06781843 0.069828995 0.005239422 -0.018744405 -0.01860187 -0.057682168 0.054555703
-0.0043480056 0.02558829 0.060475256 0.047047928 0.024452237 0.08051402 0.07765089 -0.04301575
0.09424485 -0.007693203 0.01684416 0.07268538 -0.0647012 -0.10497095 -0.046119336 0.09938542
-0.04667872 -0.049211945 -0.069277026 -0.03833514 0.023915654 -0.02046945 -0.0663681 0.03914245
00000000: 18b5 413d e4dd 493b 2f9e 3f3d 97b6 8f3c
00000010: 1c24 9bbd d513 80bc 81c6 78bd fa5b aebd
00000020: 2f5a 9f3c 9947 4fbd 18cb e6bc 1641 bfbd
00000030: 3885 5ebd d5d7 45bd dbc7 abbd c1ff 36bd
00000040: c8ad 283c 147c 62bd a326 863c 3400 843d
00000050: acdb 933d 3cae 54bd e222 6bbc 10d9 533d
00000060: d8b1 90bd 8280 893d a227 7f3d 73d7 59bd
00000070: 492d 89bd 935b 53bd 5727 61bd 883f 89bd
00000080: 45b7 5cbd 9357 5dbd a600 52bd 6639 82bd
00000090: bfde dd3d bd92 19be ee92 7d3d 91dd d4bc
000000a0: 9566 cb3c 9786 44bd 0ead 533d 13f6 c53d
000000b0: fee8 ba3c cb08 80bc 711d a5bc e271 b43d
000000c0: 76e5 7ebd 87bf be3b 6e33 80ba 28ad 5cbd
000000d0: 05d8 6b3d 9fa6 ccbb 14c8 b6bb 9d77 243d
000000e0: e35a 8cbd 3a9d de3d 2614 293d 1274 003c
000000f0: b4a5 38bd 0f2f 06bd f651 c53d f147 47bd
00000100: b4a5 ec3c 0c6c 673d b223 f43c 5857 16bc
00000110: 8033 853d 9b39 a3bd 368b 663d ca73 41bd
00000120: 413c 8d3d 2b41 aabb 9fe4 82bd 1afc 613d
00000130: 0341 f1bc e50c a23c 9f44 9abc 0bd1 7fbd
00000140: 9356 d93b 3f89 5c3d 3a2c 753d 6aa8 a6bc
00000150: 02ba 3b3d ad00 51bd 23d9 a83d 526a 7abd
00000160: b47a b83d 3b5c 1e3c b7c2 c03b b066 453d
00000170: 7e53 ec3c 3298 5f3d 47db cdbd 45e2 cc3c
00000180: 27c8 21bc 64e4 8a3d 8102 8f3d 75af ab3b
00000190: de8d 99bc f362 98bc 2344 6cbd cd75 5f3d
000001a0: b779 8ebb 899e d13c e7b4 773d 54b5 403d
000001b0: 0f50 c83c 89e4 a43d 6e07 9f3d 4831 30bd
000001c0: 7203 c13d 4417 fcbb c4fc 893c 13dc 943d
000001d0: 1082 84bd 02fb d6bd a1e7 3cbd 958a cb3d
000001e0: 2f32 3fbd 7792 49bd 1de1 8dbd 4f05 1dbd
000001f0: c3ea c33c 8caf a7bc 00ec 87bd d553 203d

weight f4 [1, 128]
-0.029009795 0.021550123 0.0057063894 0.01844484 0.06284765 -0.07247941 0.037302166 -0.074883915
-0.07282684 -0.015746402 0.06545786 -0.0077451007 0.0017477198 0.032784447 0.045784563 0.05313061
0.03665877 0.050780762 -0.054985322 -0.04419911 0.08745678 0.029419329 0.04109612 -0.065503746
0.043645937 0.014309982 -0.022019412 -0.041909114 -0.009002517 0.05043126 -0.028120078 0.004802135
0.0037562284 0.036360968 -0.07757906 0.028311756 0.060029883 -0.2344038 0.020285767 0.04171975
-0.08007433 -0.043166116 -0.025378833 0.09650322 0.08778098 -0.008962475 0.4635555 0.021372845
0.041815363 -0.0065859593 0.00824803 0.012895145 -0.063412465 0.04253691 -0.035422917 0.08542087
-0.01910066 0.039144695 -0.055379625 0.04762019 0.07247079 0.0040476383 0.053336367 0.011466977
0.02158501 -0.06650076 -0.02994986 0.086369514 -0.007882662 0.037643276 0.014196881 0.021608934
-0.0032070337 0.044054862 -0.06657465 0.05611063 0.039574567 0.09276335 -0.009209729 -0.05372799
0.028420897 0.085885495 0.0036119502 0.03686847 -0.03230316 -0.039283674 0.051010214 -0.05040072
0.09530933 -0.068441026 0.007778364 -0.051850047 0.07818897 0.073162384 -0.05583009 -0.033548474
0.3761357 0.062086873 -0.07087954 0.075177215 -0.057485256 0.055995263 0.07208445 -0.005834725
0.07940794 -0.027324026 0.001774596 -0.015011838 0.07310128 0.021903738 0.073179096 0.030365992
0.021288585 -0.074981384 0.039406788 -0.070914656 0.06983513 -0.08980054 0.064852536 0.036678404
-0.041088644 0.08208949 0.07780348 -0.043957274 -0.04725259 -0.004043647 -0.061802 -0.008709155
00000000: f3a5 edbc e289 b03c aafc ba3b a219 973c
00000010: 45b6 803d 1670 94bd 28ca 183d bd5c 99bd
00000020: 3d26 95bd 99fe 80bc c50e 863d 9dca fdbb
00000030: bf13 e53a fc48 063d 9888 3b3d 7c9f 593d
00000040: 8227 163d 7dff 4f3d 4a38 61bd 200a 35bd
00000050: 8a1c b33d ce00 f13c 6854 283d d426 86bd
00000060: 15c6 323d 6a74 6a3c 0e62 b4bc e4a8 2bbd
00000070: 4b7f 13bc 0291 4e3d 145c e6bc 3a5b 9d3b
00000080: 0e2b 763b 3def 143d c5e1 9ebd 0eee e73c
00000090: e5e1 753d 8d07 70be 562e a63c 54e2 2a3d
000000a0: 03fe a3bd f4ce 30bd 45e7 cfbc 7ba3 c53d
000000b0: 84c6 b33d 58d7 12bc 2657 ed3e 1b16 af3c
000000c0: 9646 2b3d 08cf d7bb bf22 073c 2946 533c
000000d0: 65de 81bd 2f3b 2e3d 9f17 11bd 23f1 ae3d
000000e0: fd78 9cbc 3056 203d bfd5 62bd 630d 433d
000000f0: 916b 943d 0da2 843b 3c77 5a3d fddf 3b3c
00000100: 0cd3 b03c 8d31 88bd 6959 f5bc 80e2 b03d
00000110: 4826 01bc d62f 1a3d 099a 683c 3805 b13c
00000120: 192d 52bb df72 343d 4a58 88bd 43d4 653d
00000130: f118 223d b6fa bd3d 67e4 16bc e111 5cbd
00000140: f1d2 e83c bce4 af3d 78b6 6c3b 6503 173d
00000150: 5150 04bd ebe7 20bd 16f0 503d fc70 4ebd
00000160: 8a31 c33d cf2a 8cbd a5e1 fe3b b760 54bd
00000170: 8a21 a03d 29d6 953d 18ae 64bd 206a 09bd
00000180: dc94 c03e ce4e 7e3d 4b29 91bd 83f6 993d
00000190: a975 6bbd 4a5b 653d 03a1 933d 3931 bfbb
000001a0: a1a0 a23d a3d6 dfbc 9099 e83a 36f4 75bc
000001b0: 20b6 953d 786f b33c ecde 953d 1ac2 f83c
000001c0: 6665 ae3c d78f 99bd 0369 213d b43b 91bd
000001d0: b805 8f3d 58e9 b7bd 68d1 843d 183c 163d
000001e0: 914c 28bd 891e a83d 6e57 9f3d 8b0c 34bd
000001f0: ef8b 41bd 9280 84bb 1824 7dbd d8b0 0ebc
